model_data/lr_data.pth (torch, 32992 bytes, 2 tensors)

linear.weight f4 [10, 784]
000000 9f a6 ac bd 7e a3 24 3d 75 d7 3f 3d 65 7d 44 bc
       -0.08430218 0.04019498 0.046836335 -0.011992787
000010 ba 58 9e bc b7 b2 ae 3c 6e 63 64 3a 4b 9e 05 bd
       -0.019329417 0.021325452 0.0008712326 -0.032621663
000020 84 3d 12 3d 8e 84 fc bc 55 32 af 3c fc 19 c6 3c
       0.035703197 -0.030824926 0.021386305 0.024182312
000030 4a 4b c0 ba 97 03 00 3c fe c3 c4 3c 57 c7 ca bc
       -0.0014670875 0.007813356 0.024019238 -0.024753256
000040 fa ea e7 bc b7 cb c4 bb 81 53 5d bb fb 59 07 3d
       -0.028310288 -0.00600573 -0.0033771696 0.033044796
000050 32 8d b6 bb a7 52 de bc dc 96 e8 bc 46 42 bb bc
       -0.005571031 -0.027139021 -0.028392248 -0.02285875
000060 aa 8c cd bc ca 4d 48 3c b7 84 d2 bc e5 a5 36 3c
       -0.025091488 0.012225578 -0.025698049 0.011147951
000070 5c ed 09 bc 17 b2 bf bc 6e 0d 0a bd 2e 22 20 bc
       -0.008418407 -0.02340035 -0.033704214 -0.009773774
000080 01 17 6f 3c 63 71 91 3c 21 ab c0 bc 4a 41 94 3a
       0.014592887 0.017754262 -0.0235191 0.0011310962
000090 b8 93 67 ba 75 20 02 3d a5 e5 51 3c f3 1d 67 3c
       -0.00088339625 0.031769235 0.012811099 0.014106262
0000a0 69 e9 9f 3c 31 1d a3 bc 74 eb 0a bd 3a b1 b4 bb
       0.019520478 -0.01991138 -0.03391595 -0.005514291
0000b0 f6 c8 c9 bd 86 a5 89 bd 84 ea 50 bd d8 12 8b 3d
       -0.098527834 -0.06721024 -0.0510049 0.067907035
0000c0 77 00 b9 3d 90 a6 9a 3d 93 cb ff bd 39 cb 09 3d
       0.09033292 0.075513005 -0.124900006 0.033641074
0000d0 39 3c 81 3d 62 be dd 3c 92 19 b5 bd c2 c1 90 bd
       0.06310315 0.02706832 -0.08842768 -0.07068206
0000e0 73 7d b8 bd 4e 27 e5 bd 00 49 80 bd bb 53 1e bd
       -0.090083025 -0.111891374 -0.06263924 -0.03865407
0000f0 18 c7 7a 3c f7 e9 a1 3c c1 93 be 3c 33 2b fd bc
       0.015306257 0.019764883 0.023263814 -0.030904388
000100 7b d9 0b 3d 6e 8e da 3b 33 e0 22 bc a3 b0 dd 3d
       0.034142952 0.006669811 -0.009941149 0.108247064
000110 c6 1a ed 3d 7d 9b d2 bd f1 43 33 be f0 08 b7 bd
       0.11577372 -0.10283563 -0.17506386 -0.089372516
000120 77 a8 7e be c7 c0 b3 be 63 10 af be 73 df 75 be
       -0.24868952 -0.35108015 -0.3419219 -0.2401102
000130 44 d2 5c be d8 9c b7 be 18 fb 01 bf 3e 7b 1e bf
       -0.21564585 -0.3586185 -0.50773764 -0.619068
000140 39 ce e0 be fd 91 fd be f5 53 fc be c4 1c c1 be
       -0.43907335 -0.49525443 -0.49282804 -0.3771726
000150 62 6c df be 86 a6 af be bb 77 37 be 6c 44 d6 bd
       -0.43637377 -0.34306735 -0.17916767 -0.10462269
000160 1f 49 df bd 83 68 1f bd 25 69 06 39 e3 31 db 3c
       -0.109026186 -0.03891803 0.00012818405 0.026757186
000170 a1 e8 ba 3c 13 2c 5c bb ae 49 76 bc 6a 22 3d 3d
       0.022816004 -0.0033595606 -0.015032215 0.046175398
000180 0d 80 06 be 66 45 4b be ad b0 82 be 76 54 89 be
       -0.13134785 -0.19850692 -0.25525418 -0.2682225
000190 3b 69 d9 bd 1b a7 50 be 33 8e 33 be b9 4d d1 bd
       -0.10615774 -0.20376246 -0.17534713 -0.102199025
0001a0 3b 11 f0 bd e9 d3 85 bd 08 d2 e3 bd b5 85 b8 bd
       -0.117220365 -0.06534559 -0.11124045 -0.090098776
0001b0 e7 00 5a bd 60 60 1d be 7e 8e 96 be e9 13 a4 be
       -0.053223517 -0.15368795 -0.29405588 -0.3204644
0001c0 b0 45 95 be 54 65 b2 be b4 c0 b4 be f8 60 68 be
       -0.2915473 -0.34842932 -0.3530327 -0.2269324
0001d0 4d 81 df bd 34 69 ae bd 26 af b4 bd b8 ca e0 bc
       -0.10913334 -0.0851616 -0.088224694 -0.027440414
0001e0 78 96 ed 3c 72 2c 47 bd b5 57 ce bc e7 9a 04 bd
       0.029002413 -0.04862637 -0.025188306 -0.03237429
0001f0 8f bf 63 be 88 07 a5 be fd 92 86 be 96 54 c7 bd
       -0.22241043 -0.32232308 -0.26284018 -0.0973293
000200 6f 98 30 bd db c6 ac bc 17 8b 99 bd d3 df 3e bd
       -0.043114122 -0.021090915 -0.074972324 -0.046600174
000210 de 90 da bd 49 f6 09 bd 9e 9d 88 bd 78 57 be bb
       -0.106721625 -0.03368214 -0.06670688 -0.005808767
000220 b0 41 a7 bd b2 e9 d0 3c 99 a5 8c bd 03 03 87 bd
       -0.08166826 0.02550206 -0.06867523 -0.06592371
000230 12 1e bc bd 44 1c eb bd cc af 00 be 02 e1 1d be
       -0.09185423 -0.114800006 -0.12567061 -0.15417865
000240 6d 81 a2 be 44 98 56 be 6a e6 60 be 76 ff ca bd
       -0.3173937 -0.20956522 -0.21962896 -0.099120066
000250 b8 0d 7a 3a 81 82 7b bb 38 64 d9 bd 7b 0f d6 bd
       0.00095387874 -0.0038377347 -0.10614818 -0.104521714
000260 eb 3d 87 be 6d 07 b6 be df 09 2a be aa 06 d7 bd
       -0.26414427 -0.3555254 -0.16605328 -0.10499318
000270 01 24 85 bd e5 dd a9 bd eb 47 06 3d e2 d0 03 bd
       -0.06501008 -0.08294276 0.03278343 -0.032181628
000280 38 72 ee bc 42 75 c9 3d 9e 6c ef 3d 01 87 fb 3d
       -0.029107198 0.09836818 0.11690639 0.12281609
000290 b6 9f eb 3d d1 a1 07 3e 05 ca de 3d c2 dd 45 3d
       0.11505072 0.13245322 0.10878376 0.048307188
0002a0 d0 b1 0e bd 8d a5 ed 3b 9f 00 7c bb 09 f4 53 be
       -0.034837544 0.007252401 -0.0038452519 -0.20698561
0002b0 e8 5a c0 be 96 37 06 bf a3 95 e7 be 5d e3 0c be
       -0.37569356 -0.5242857 -0.4523135 -0.13758607
0002c0 00 72 aa bb 76 1e 91 bd fa 9a d8 bd e4 43 fb bd
       -0.005201578 -0.07085888 -0.105764344 -0.122688085
0002d0 65 8a 88 be 26 fe 0c be 89 e4 91 bd 9a 12 ff bc
       -0.26668087 -0.13768825 -0.07123668 -0.0311368
0002e0 8e 9e f6 bd 4d 1a 34 be 71 f7 7d bd 77 9b 98 bc
       -0.12041961 -0.17588158 -0.062003557 -0.018628819
0002f0 ca 32 9a bc 89 d5 0a 3e d0 02 cc 3d cb 64 a6 3d
       -0.018823046 0.1355802 0.09961474 0.081246935
000300 bd c5 10 3e 02 49 18 3e 6f c9 45 3e 18 8f 94 3d
       0.14137931 0.148716 0.19315122 0.072538555
000310 f5 f7 ac 3d a6 03 d7 3d 3a 3c 1f 3e ba 4e c6 bd
       0.084457316 0.10498743 0.15550318 -0.09682985
000320 f2 4d da be 1c 17 4a bf 2f de f3 be 34 1f 26 be
       -0.42637593 -0.7894151 -0.4763045 -0.1622284
000330 7d 6f af 3c 92 4d 01 be 4f 1c bc bd 6c 3d 0e be
       0.021415466 -0.12627247 -0.09185087 -0.13890618
000340 2c 46 a5 be 97 71 c9 bd b6 90 37 bd 49 83 b5 bd
       -0.322801 -0.09836119 -0.04481574 -0.08862931
000350 b8 0e 41 be 69 15 e5 bc ad b1 d0 bc 26 53 89 3c
       -0.18853271 -0.02796431 -0.025475347 0.016763281
000360 bf d6 1a 3d 05 a3 34 3d ff ad 28 3d d1 f8 c2 3d
       0.037802454 0.04410078 0.04118156 0.09520114
000370 d2 42 04 3e 5e 5d 63 3e f0 1e 1e 3e 34 74 18 3e
       0.12916115 0.22203586 0.15441489 0.14888078
000380 b9 f2 26 3d 8c 77 85 3d ab 0f cc 3d e2 2d e2 3d
       0.040758822 0.065169424 0.09963926 0.11043908
000390 08 67 6a be 7a e4 34 bf e4 a6 18 bf 5f d1 15 be
       -0.22890866 -0.7066113 -0.59629655 -0.1463065
0003a0 b9 55 0b 3e 80 50 aa bd fd e1 9c bc 2d de af bd
       0.1360692 -0.083161354 -0.019150728 -0.085872985
0003b0 a0 ea a6 be 99 bf ff bd 0f e2 83 bd f2 59 f7 bd
       -0.3260088 -0.12487716 -0.06439602 -0.120777026
0003c0 7f 85 c7 bd 8f 30 40 3b 98 e3 1b 3c 7d c4 7e bc
       -0.09742259 0.0029325818 0.009514712 -0.015549776
0003d0 ed 79 77 3d d9 55 96 3c 0d 31 e7 3d d4 94 12 3e
       0.06041901 0.018351482 0.112886526 0.14314586
0003e0 61 f4 84 3e c2 e7 6a 3e 39 8d 34 3e a4 69 01 3e
       0.25967696 0.22939971 0.17631997 0.12637955
0003f0 f3 ef 63 3d df 42 c1 3b 0d 71 d5 3d 00 9d 17 3e
       0.055648755 0.0058978642 0.10421953 0.14805984

linear.bias f4 [10]
000000 c9 44 88 be 1c 88 d3 3e 0d 29 c5 3c 66 1d 86 be
       -0.2661498 0.4131478 0.024067426 -0.26194304
000010 59 d6 b2 3d 82 c8 24 3f 3b dd 68 bd cd 03 cf 3e
       0.0873229 0.6436845 -0.056851607 0.40432587
000020 ee 00 52 bf f8 6d e9 bd
       -0.8203267 -0.11397928
