model_data/lr_data.pth (torch, 32856 bytes, 2 tensors)

linear.weight f4 [10, 784]
0	0xbf9c26e1	-1.2199365
1	0x405b7d0e	3.4295077
2	0x401101ca	2.2657342
3	0xbf824c19	-1.0179473
4	0xbc9e58ba	-0.019329417
5	0x3caeb2b7	0.021325452
6	0x3a64636e	0.0008712326
7	0xbf83feea	-1.0312169
8	0x3d123d84	0.035703197
9	0xbcfc848e	-0.030824926
10	0x3caf3255	0.021386305
11	0x3cc619fc	0.024182312
12	0xbac04b4a	-0.0014670875
13	0x3c000397	0.007813356
14	0x3cc4c3fe	0.024019238
15	0xbccac757	-0.024753256
16	0xbce7eafa	-0.028310288
17	0xbbc4cbb7	-0.00600573
18	0xbb5d5381	-0.0033771696
19	0x3d0759fb	0.033044796
20	0xbdf7c428	-0.12097961
21	0xbeea3a71	-0.45747712
22	0xbea974dc	-0.3309697
23	0xbd4a0fb7	-0.049331393
24	0xbccd8caa	-0.025091488
25	0x3c484dca	0.012225578
26	0xbcd284b7	-0.025698049
27	0x3c36a5e5	0.011147951
28	0xbc09ed5c	-0.008418407
29	0xbcbfb217	-0.02340035
30	0xbd0a0d6e	-0.033704214
31	0xbc20222e	-0.009773774
32	0x3c6f1701	0.014592887
33	0x3c917163	0.017754262
34	0xbcc0ab21	-0.0235191
35	0x3a94414a	0.0011310962
36	0xba6793b8	-0.00088339625
37	0x3d022075	0.031769235
38	0x3c51e5a5	0.012811099
39	0x3c671df3	0.014106262
40	0x3c9eab58	0.019368812
41	0xbcab0f96	-0.020881455
42	0xbd920824	-0.07130459
43	0xbe64b2a1	-0.22333767
44	0xbf464258	-0.7744498
45	0xbf504a9e	-0.81363857
46	0xc01404c8	-2.3127918
47	0x40161ac8	2.3453846
48	0x40186b78	2.3815594
49	0x401b9c2d	2.4314072
50	0xc091c025	-4.554705
51	0x401ef4ca	2.4836907
52	0x4020653c	2.5061789
53	0x401fc1b7	2.4961984
54	0xc0583702	-3.3783574
55	0xbfa68e58	-1.301219
56	0xbf98aaf7	-1.1927174
57	0xbf0915f9	-0.5354915
58	0xbe0b4d92	-0.1360381
59	0xbd5df2bd	-0.05418657
60	0x3c7ac718	0.015306257
61	0x3ca1e9f7	0.019764883
62	0x3cbe93c1	0.023263814
63	0xbcfd2b33	-0.030904388
64	0x3d0bd97b	0.034142952
65	0x3bda8e6e	0.006669811
66	0xbd3e8bbe	-0.046519987
67	0x4017dcfe	2.3728633
68	0x401c8c94	2.4460802
69	0xbf3d543e	-0.7395667
70	0xbfa4bff3	-1.2871078
71	0x3fca4b9e	1.5804327
72	0xbf8d2566	-1.1027038
73	0xc0597507	-3.3977678
74	0xc0da8910	-6.8292313
75	0xc005ab5b	-2.0885837
76	0xc02fa4dd	-2.7444375
77	0xc00555b1	-2.0833552
78	0xc0505c0d	-3.2556183
79	0xc098e606	-4.778079
80	0xbcf190b5	-0.029487947
81	0xc0934ce9	-4.6031384
82	0xc01d2cca	-2.4558587
83	0xbf062e7a	-0.5241467
84	0xc0ab03b4	-5.344202
85	0xc087b82e	-4.241233
86	0xc0861c59	-4.1909604
87	0xc04a0ff3	-3.1572235
88	0xc005fb7c	-2.0934744
89	0xbea93c8c	-0.33054006
90	0x39066925	0.00012818405
91	0x3cdb31e3	0.026757186
92	0x3cbae8a1	0.022816004
93	0xbb5c2c13	-0.0033595606
94	0xbdbf953a	-0.093546346
95	0x3fec077f	1.8439788
96	0xbfba480b	-1.4553236
97	0x3fc64ba2	1.5491831
98	0xbe98d8bf	-0.29852864
99	0xc02e83d4	-2.7267962
100	0x3e171023	0.1475225
101	0xbf230d34	-0.6369202
102	0xbed08cac	-0.40732324
103	0xbcbb5da4	-0.0228718
104	0xbf278643	-0.6543924
105	0x3ed8cd45	0.42344108
106	0x3f2e58db	0.6810433
107	0xbed5369a	-0.4164322
108	0x3dd9b7e7	0.1063078
109	0x3e9faf78	0.3118856
110	0xbf099c3d	-0.53754026
111	0xbf39e6a5	-0.7261756
112	0x3e60ce57	0.21953712
113	0xbfb29ba9	-1.3953754
114	0xbefc3c58	-0.4926479
115	0xbe93b954	-0.28852332
116	0xbeed209d	-0.46313944
117	0x3faa8d81	1.3324434
118	0xc021a4fa	-2.5256944
119	0xbce0cab8	-0.027440414
120	0x3ced9678	0.029002413
121	0xbd54380d	-0.051811267
122	0xbf9d0387	-1.2266701
123	0xbffadbae	-1.9598291
124	0xc01b0c34	-2.4226198
125	0xc097c1fb	-4.7424293
126	0xbffb616f	-1.9639109
127	0x3e0f90bc	0.14020056
128	0xbe6be260	-0.23035574
129	0x3f1cc6de	0.6124095
130	0xbf0c088e	-0.54700553
131	0x3f4e7371	0.806449
132	0xbf29cb96	-0.6632627
133	0x3ed1e6fd	0.40996543
134	0xbecf308a	-0.4046672
135	0x3edc1047	0.4298117
136	0xbf11e602	-0.5699159
137	0x3e9df4af	0.3085074
138	0xbdf2a99d	-0.118487574
139	0x3d262061	0.040558223
140	0x3df46f2d	0.119352676
141	0xbf120618	-0.5704055
142	0x3e9fe2dd	0.3122777
143	0xbca99149	-0.02069916
144	0xbf3fbbbd	-0.7489584
145	0x3ef9f3ce	0.4881882
146	0xc050a7fd	-3.2602532
147	0xbfbcbfd0	-1.4746037
148	0x3a7a0db8	0.00095387874
149	0xbb7b8281	-0.0038377347
150	0xc04fd578	-3.247404
151	0xc010ad5b	-2.2605808
152	0xbc37319e	-0.011181263
153	0xc02b6443	-2.6779945
154	0x3ebbaabf	0.36653706
155	0xbf0ff68a	-0.56235564
156	0x3e0b2cc5	0.13591297
157	0xbcebe78c	-0.028796934
158	0x3f321494	0.6956265
159	0x3d84d510	0.06485951
160	0xbead990b	-0.33905825
161	0x3dbeba02	0.09312822
162	0x3e4e1386	0.20124635
163	0xbd6eb49f	-0.058277722
164	0x3d68b3c6	0.05681207
165	0x3e51ad87	0.20476352
166	0x3e95b5da	0.29240304
167	0x3e40f08e	0.18841764
168	0xbee0fd4c	-0.4394325
169	0xbea68835	-0.32525793
170	0x3dcba40c	0.09943399
171	0xbf3d120a	-0.7385565
172	0xbe85dfaa	-0.26147205
173	0xbf943204	-1.1577764
174	0xc09d1d09	-4.9097943
175	0xc0248039	-2.570326
176	0xbbaa7200	-0.005201578
177	0xbf4a1932	-0.78944695
178	0xc02c78d1	-2.694874
179	0xc0b0c041	-5.5234685
180	0xbf2648e0	-0.6495495
181	0xbe2d32ea	-0.16913953
182	0x3e653aa8	0.22385657
183	0xbd431ca1	-0.047634725
184	0x3c753633	0.014966535
185	0xbf967581	-1.1754609
186	0xbe60e69c	-0.2196297
187	0xbcb4351c	-0.02199798
188	0xbeb159e1	-0.34638885
189	0x3f1dbc04	0.61615014
190	0x3ea43fe0	0.32079983
191	0xbe1ee507	-0.15517054
192	0x3e8409a9	0.2578862
193	0xbd70b514	-0.05876644
194	0x3e90ef66	0.28307647
195	0xbe3bc0b2	-0.18335226
196	0x3d781e8a	0.060576
197	0x3f1ef08d	0.620858
198	0x3f5fe723	0.8746206
199	0xbf25627b	-0.64603394
200	0xbfb1bbfa	-1.3885491
201	0xc05337c7	-3.3002794
202	0xc0b1f1dd	-5.5607743
203	0xbf0c43de	-0.5479106
204	0x3caf6e01	0.021414759
205	0xc05af1ec	-3.4210157
206	0xc05a124c	-3.4073668
207	0xc010b879	-2.2612593
208	0xbfccdd1f	-1.6004981
209	0x3e5b18b5	0.21396144
210	0x3f0916f3	0.5355064
211	0x3d3ed2b2	0.046587653
212	0xbf188270	-0.5957403
213	0x3ec9c5ad	0.39408627
214	0x3d8215c0	0.06351805
215	0x3ebb1841	0.36541942
216	0xbe9f7138	-0.31141067
217	0x3e2e5257	0.17023598
218	0x3d90d109	0.0707112
219	0xbdf8cfbe	-0.12148999
220	0xbe6bb040	-0.23016453
221	0x3f104b56	0.56364954
222	0x3ed1e85a	0.40997583
223	0x3e6ee905	0.23331077
224	0xbdb51e68	-0.0884369
225	0xbea2fc2c	-0.31833017
226	0xbf15019d	-0.58205587
227	0x3f076e7c	0.5290296
228	0xbe01ee66	-0.12688598
229	0xbf1b8d9b	-0.6076295
230	0xc0baafea	-5.833974
231	0x3f4e9401	0.80694586
232	0x402c9bba	2.6970048
233	0xc0322dcf	-2.784046
234	0x400dae00	2.213745
235	0x400d26a6	2.205484
236	0xc00a5f5b	-2.16207
237	0xbf101bce	-0.56292427
238	0xbea55926	-0.32294577
239	0xbd0b60a0	-0.034027696
240	0x3e507610	0.20357537
241	0x3ea10d7e	0.31455606
242	0xbeaf1180	-0.3419304
243	0xbe80df9f	-0.2517061
244	0x3ebc3410	0.3675847
245	0xbe9ca7f4	-0.30596888
246	0x3ef62028	0.48071408
247	0x3e6ee7ab	0.23330562
248	0x3f5ded1e	0.8668994
249	0x3eb0b1a5	0.34510532
250	0x3e0a3417	0.13496433
251	0xbebafbf4	-0.3652035
252	0x3e981a80	0.29707718
253	0x3f07845b	0.52936333
254	0x3f069fe0	0.525877
255	0x3e4f16f0	0.20223594

linear.bias f4 [10]
0	0xbf8ae1d8	-1.0850172
1	0x3fd04351	1.6270543
2	0x3e53f82e	0.20700142
3	0xbf4cd92c	-0.8001888
4	0x3ec82ddc	0.39097488
5	0x400a9aa5	2.1656888
6	0xbf188e06	-0.5959171
7	0x3fa901a1	1.3203622
8	0xc017b8b7	-2.370649
9	0xbf126260	-0.5718136
