model_data/mlp_data.pth (torch, 408880 bytes, 4 tensors)

fc1.weight f4 [128, 784]
00000000: d69b 91bd fe56 c33d a1fb e83d 3846 ddbc
00000010: a58b 10bb 97db 03bd dc04 d33a 9fbe 90bd
00000020: 7383 fdbc 2549 a4b6 0877 e7bc c010 8c3b
00000030: b5fb ddbc be15 e73c c541 693c 0cc0 9e3c
00000040: 93ae 6e3a 5108 d4bc 8862 e83c d2a5 00bd
00000050: 45aa 383d 018b 453b 3d41 87bb eb3a 673b
00000060: 517c f0bc 712b d1bc 9c9b 85bc ae08 cebc
00000070: 1c72 103c 6eb8 3f3b bc5c 1e3c 8aee 09bc
00000080: dcfa b8b9 df3d 053d f308 ccbc ee77 043c
00000090: 137a fd3b 631a b53c 3b08 0e3d b84b 093d
000000a0: feb1 9f3c c036 043d ef5d 83bc 0609 39bc
000000b0: feda 34ba 9b49 d9bc 8d6c 08bd 8d08 3ebc
000000c0: f313 933c 6796 12bd f35d 43bd d27c 20bd
000000d0: 1b6f 53bc 6e3d e33b e7bc debc 8c81 2c3c
000000e0: 90c3 46bd d16a a9bc 393f 03bd dcd6 513c
000000f0: 0ea5 d2bc dca7 e03c b36e 293c c3de febc
00000100: 9032 8fbc 951f 9f3c 6e9e 263c ede9 34bc
00000110: d3a8 a5bb bf35 5a3c 8412 8c3c e9ce 3ebd
00000120: 2c11 6e3d cbb4 e13d 9e6d 7b3d e875 d939
00000130: 7523 503c cba6 a4bd 5087 c2bd f374 0dbe
00000140: 537a 4fbe ba9c 18be c75b 50be 11c0 1cbe
00000150: b399 24be 1211 64bd 5928 b0bc 059a e1bc
00000160: e33f 8e3b 7f65 abbc b78b 9abb 23d8 d53c
00000170: b6c9 053d 93fa 293b 7418 80bc 0737 2bbd
00000180: ff63 30bc 8b29 d53d 4c54 133e 4c8e 163e
00000190: 0de4 5a3e f7f1 ef3d 9ef7 a73d f5a1 e73d
000001a0: c7fa 233e f1ae 063e 4777 3c3d d44a 68bd
000001b0: b7ef adbd 7481 18be 1ded f3bd e826 c5bd
000001c0: dcae 83bc f315 87bc af5b 7bbd dd3f 97bd
000001d0: ab92 ba3c c248 e33d 40fb ea3d d103 b7bc
000001e0: 651d 5ebc 0725 bbbc 6836 11bb 6eb4 c73d
000001f0: 239f 363b dc4a 233d f913 6c3e 9622 6a3e
00000200: fccf 213e ff39 413e bb55 073e 4704 803e
00000210: a3a2 4a3e bc76 1d3e 1e73 de3d dfb3 873d
00000220: aba4 8dbc 97a0 ad3c c0c6 f8bc c8d1 ccbd
00000230: a6b1 cfbd 0ebf a6bd ab32 21bd 12f5 adbd
00000240: 9c31 cc3c df15 023d 4242 083e 0a20 0f3c
00000250: 93c2 95bb f52d 83bc 014f e93c cea3 0f3e
00000260: 2acb cd3c 37d6 3d3d bb68 e23d 318f 283e
00000270: c163 253e 4617 c53d f014 2a3e f1ad 373e
00000280: b467 013e b379 0e3e bf97 1f3e 8bf3 c63d
00000290: 9a73 0a3e 53eb aa3d 6e04 0b3d 43b6 4b3c
000002a0: 1027 bd3c 2b25 943c 10f8 ffbc 8ce0 66bd
000002b0: 81d9 75bd c90c 453e 8716 dc3d 4e64 bbbb
000002c0: c32d db3c e7f9 613d fe27 463d dd58 a63d
000002d0: 0f60 ba3c 4489 813c 8df2 743d ba38 853d
000002e0: 060d 753d 0ff5 c93d 9a15 0f3e 751e 053e
000002f0: 6500 043e 8bae 483e 3d16 3e3e 3fb7 583e
00000300: 4441 2b3e ff2e 043e e80f fe3d 0482 f13c
00000310: 4a41 343d 0a1d 7d3d 941c 873d a367 1fbc
00000320: 1928 babc 5e18 8a3d afab a03d bdac 023d
00000330: 7aba f03b 2b2d 2c3e fb94 133e bf64 1f3d
00000340: d8d3 153d 1d38 bfbc 8f00 213d 43c7 b13c
00000350: f4cd be3d 03ab 413d 0801 a63d e36f f13d
00000360: faa6 053e 31d3 523e 6753 553e f373 293e
00000370: 9c19 493e 82eb 0f3e 15ea 133e 05d9 663d
00000380: 310f 103d 4685 d73c 7551 0b3d 0008 a3bd
00000390: bb9a 71bd 231f 69bb 3223 1b3e df58 a13d
000003a0: a5f0 e03c da12 7e3d f431 e13c 3275 8b3d
000003b0: 17f4 363d 2ba7 49bd 4552 0bbd 9751 39bd
000003c0: 559a 6d3d ea3d ba3c fa29 913d 823e 603d
000003d0: dec1 e43d 6ec6 0b3e 91bf 103e c9e3 e63d
000003e0: de05 333e 5bc7 283e 07af 303e 67b5 d83d
000003f0: 2430 9d3d c6fa f63c 8f75 d13d c857 1c3d
-0.071098015 0.09538077 0.113761194 -0.027011022 -0.002205589 -0.03219184 0.0016099471 -0.07067608
-0.030946469 -4.896096e-06 -0.028255 0.0042744577 -0.027097562 0.02820861 0.014236872 0.019378684
0.0009104993 -0.025882872 0.028367296 -0.03140814 0.045084257 0.0030142667 -0.00412765 0.003528292
-0.029356154 -0.02553341 -0.016309552 -0.025150623 0.008816268 0.0029254216 0.009665664 -0.008418689
-0.0003528212 0.032529708 -0.024906611 0.008085234 0.0077354996 0.022107309 0.034675818 0.033519477
0.019494053 0.032278776 -0.016036002 -0.011293655 -0.00068990875 -0.026524356 -0.033306647 -0.011598718
0.017953848 -0.035787966 -0.04769702 -0.039181538 -0.012904908 0.006934813 -0.027189685 0.010528933
-0.048526347 -0.020680817 -0.032042716 0.012807574 -0.02571347 0.027423792 0.010341334 -0.03111208
-0.017480165 0.01942424 0.0101696085 -0.0110421 -0.005055526 0.013318478 0.017098673 -0.046584044
0.058121845 0.11020812 0.061383836 0.00041477312 0.012703766 -0.08039626 -0.09498465 -0.13814144
-0.20261507 -0.14903536 -0.2034751 -0.15307643 -0.16074257 -0.055680342 -0.021503614 -0.027539263
0.004341112 -0.02092242 -0.0047163623 0.026104039 0.03266307 0.0025936707 -0.01563666 -0.041800525
-0.010766028 0.10408314 0.14387625 0.1470272 0.21376057 0.11716073 0.08201526 0.11310188
0.16013633 0.13152672 0.04601219 -0.056711987 -0.084929876 -0.14893132 -0.1191046 -0.096265614
-0.01607459 -0.016489958 -0.061366733 -0.07385228 0.022775015 0.11097862 0.114737034 -0.022340687
-0.013556813 -0.022844804 -0.0022157673 0.09751211 0.002786585 0.039866313 0.23054494 0.22864756
0.15801996 0.1886978 0.13216297 0.25003263 0.19788603 0.15377325 0.108618006 0.066261046
-0.017290434 0.02119474 -0.030368209 -0.1000095 -0.101413056 -0.081419095 -0.03935496 -0.08494009
0.024926 0.03175914 0.13306525 0.008735666 -0.004570314 -0.016013125 0.028480055 0.1402733
0.02512129 0.04634687 0.11055132 0.16460873 0.16151334 0.0962358 0.1660955 0.17937447
0.12637216 0.13913612 0.1558523 0.09714421 0.13520661 0.08345666 0.03393977 0.012433591
0.023089916 0.01808413 -0.031246215 -0.05636649 -0.06002188 0.19243158 0.10746484 -0.0057187444
0.02675522 0.055169966 0.048377983 0.08122418 0.022750882 0.015812524 0.059801627 0.0650496
0.059826873 0.09861194 0.13973084 0.129999 0.12890776 0.19597833 0.1856317 0.21163653
0.16724116 0.12908553 0.124053776 0.029480942 0.044007577 0.061795272 0.06597248 -0.009729299
-0.022724198 0.06742929 0.07845246 0.031903017 0.0073464485 0.16814105 0.144123 0.03891444
0.036578983 -0.023342187 0.039307173 0.02170146 0.09316626 0.04728223 0.081056654 0.11788919
0.13051978 0.20588376 0.20832597 0.16548137 0.19638675 0.14054683 0.14444764 0.05635931
0.035170738 0.026308667 0.03401323 -0.0796051 -0.058985453 -0.0035571537 0.15150145 0.07878279
0.027458498 0.062029697 0.02748964 0.068094626 0.044666376 -0.04923169 -0.034014005 -0.045243826
0.05800851 0.022734601 0.070880845 0.054747112 0.1116979 0.13649914 0.14135577 0.11273915
0.17482707 0.16482298 0.17254268 0.10581475 0.07675198 0.030148875 0.10227501 0.038169652

fc1.bias f4 [128]
00000000: 6f60 9cbd 6b48 f13d aabe 50bd 8b92 df3d
00000010: 298d a83d 1907 5d3c 9982 403d 0a9d a5bd
00000020: bbd9 32bd 23f8 ecbb 76be b33d 8303 7fbd
00000030: 00d9 31bc 0c07 c83d b4c5 bcba 32fa 263e
00000040: c2e9 c6bc 2843 e93b d86e 03bd caf1 e6bd
00000050: aba3 17bd 5a30 92bc bf2f c93d 7c05 003d
00000060: 3ced 113c 7b80 73bd c94d 8d3d 949b 82bc
00000070: 7ba0 d13d 89c5 9f3d d6ca 0c3e 22e1 063c
00000080: b11f 4c3d 54f0 623b 8438 d43c b00a 58bd
00000090: d5d4 c93d b174 113d 78e7 3cbd 5df0 813d
000000a0: fb37 b33d 882d a53d 0aaa bc3d bbf3 233e
000000b0: 27c4 d8bd 4470 a3bd b37a d0ba 1860 423e
000000c0: 5bf6 5a3d 3486 533d 6385 393c 65e5 22be
000000d0: 8fc3 103d 343f a5bc 6e3a ea3c e58c 2f3e
000000e0: df1b 313c 3d45 ea3d b4ec 4a3d 8a7b 303e
000000f0: 7c5d 98bb f62f 1f3d fe4b c13d 9d4a 45bd
00000100: 53ad 873d a9f3 8d3d e851 923c b87b 183c
00000110: 2204 0a3e 20d4 22bc 35b3 64bd f64b 973d
00000120: 8130 22bd af4f a03d 1e5a 55bc c391 a23d
00000130: 1c19 f33d d7f7 cd3c 4228 e33d 50b5 14be
00000140: 3813 043c 1478 44bc bc9c 143d cdf4 7f3b
00000150: be2b b9bc 9b7b 493d a6b4 2f3e 1753 89bd
00000160: ef60 a73c a07b 103e a3ef 033e acb1 853c
00000170: 3113 833d d8b1 bbbc 3ef0 283e c861 003e
00000180: eced d03d 2faa a43c 2201 0bbd bf0b 0abe
00000190: ec0f 573d 75b7 75bb e72d 533d 5adf 263e
000001a0: 5409 813d 6399 303e 3a81 133d 050c b7bd
000001b0: 2704 da3c 3a60 32bd 6ff5 6bbd 4498 cbbd
000001c0: 727d d43d aadd b0bd c0b1 fc3d 2d04 de3d
000001d0: dd0e 043e d48c ebbd ec89 813d 818a 81bc
000001e0: 1e8b 093e 53f6 7f3c a803 d6bc 10b2 aabc
000001f0: e4c3 553d 5973 35bc 8684 2d3e c2eb 353e
-0.07635581 0.11781391 -0.05096308 0.10916623 0.08230049 0.013490462 0.046999548 -0.080865934
-0.043664675 -0.0072317286 0.08776562 -0.06225921 -0.0108549595 0.09766969 -0.0014402182 0.1630638
-0.024281386 0.0071186014 -0.03208813 -0.11276586 -0.03702132 -0.017845321 0.0982356 0.03125523
0.008906659 -0.0594487 0.06899602 -0.015943326 0.10235687 0.07801349 0.13749251 0.008232387
0.04983491 0.003462811 0.025905855 -0.052744567 0.098550476 0.035511676 -0.046119183 0.06344674
0.08750912 0.08065325 0.0921212 0.16010945 -0.10584288 -0.07980397 -0.0015905708 0.1898197
0.0534576 0.051641658 0.011323306 -0.1590782 0.03534275 -0.02017174 0.028592315 0.17143591
0.010809868 0.114389874 0.049542144 0.17234626 -0.004649816 0.0388641 0.094383225 -0.04816686
0.06624856 0.0693124 0.017861322 0.009306841 0.13478139 -0.00993827 -0.055834968 0.07387535
-0.03959704 0.078276984 -0.013021974 0.07937958 0.118700236 0.025142593 0.11091663 -0.1452229
0.008061223 -0.0119915195 0.036282286 0.0039055825 -0.022603866 0.049190145 0.17158756 -0.06705301
0.020431964 0.14109659 0.12884383 0.016320072 0.06400145 -0.022911951 0.16497895 0.125373
0.1020163 0.020100681 -0.033936627 -0.13481043 0.05250542 -0.0037493382 0.051557448 0.1629614
0.06300607 0.17246012 0.036011912 -0.089378394 0.026613308 -0.0435488 -0.05760711 -0.09941152
0.10375489 -0.08636029 0.123385906 0.1084064 0.12896295 -0.1150147 0.06325135 -0.015813114
0.13431975 0.015622693 -0.02612479 -0.02083686 0.05218877 -0.011074864 0.16945085 0.17765716

fc2.weight f4 [10, 128]
00000000: e6c5 193e 731a ac3d 4f02 a5bd 676b 66be
00000010: 4f0d d7bd 6677 143e f7de 04bf 6a23 173e
00000020: 1800 6d3e 30d0 d73c 5f75 f1bd db85 ccbb
00000030: 274a da3d bf29 8cbe 09db f03d a36e e5ba
00000040: 01f6 463e fb97 11be 5f33 d03d 6c61 c03d
00000050: 6c7b c13c 2be0 4ebc a0af 86bd b0dd 833e
00000060: 2bda eabd ccc1 95bc cb8c 13be 79f5 b1bd
00000070: 5912 c9be ad37 92be 5ea5 d9be a29c 79be
00000080: d526 b6be c42a 383d bc2f b93c 96fd 773e
00000090: 5ac5 08bc 2cf9 73bc c2f3 003e 9a91 dbbe
000000a0: 9cd2 e13d 5aef 5bbe 117f 3d3d 9fbe d0be
000000b0: c8b3 403e 03ad 653c bd67 0ebd 4409 063e
000000c0: a159 49be be18 3c3e 539c 67be 721b a83d
000000d0: ff16 1fbd 873e 903a 5cd8 b7be 1b76 77be
000000e0: e432 213e ea00 d3bd 666a 273d e87a 353e
000000f0: 87ba f8be 4c6a 77be ff4b 6d3d 7641 a3be
00000100: 721d 89bd 9d58 c13d 37a0 e9be 0c8d 82bd
00000110: 10d3 963d 7226 26bb 7ed0 bc3d c78d 563e
00000120: 2af9 f53a 34b2 b6bd b6d8 32bd 34ed 54be
00000130: 18cd 37be 762d 3bbe f3e9 2c3d 7745 463d
00000140: cd4e b1bc 7005 a03d 9fac f9bd 20e1 683d
00000150: 46fa 38bb a45e 913d 6bd1 793d 6459 193e
00000160: c241 e9bd 6a28 623d 0daf 8fbe 692b 12be
00000170: c2ad f53d d554 d53d 23fc c2be 63c2 a0be
00000180: d079 3c3d 8f49 7f3d c0e2 f83b 7590 d53d
00000190: 4224 d2be 2b11 03be c3e0 93be 3bf3 08be
000001a0: e442 1d3e 7ea9 233d 195d 22be e09c 8bbe
000001b0: 2f92 5ebd 0e33 573c d365 28bd 17c3 ebbc
000001c0: 1166 93be 7554 153d 922f 263e a08d 09bd
000001d0: 9aac e23d 766d f63d e444 d63c 2b2b 733d
000001e0: cbcc d3be 81f1 f83d 1fec 843d 4a5d c13d
000001f0: ea69 723d e99e 103e bc79 abbe 8d12 e33d
00000200: 148e 8fbe 7849 85be 1b0a 5fbe 2ba0 383e
00000210: 58c9 9ebd 5030 8bbe 56ad ea3d 63c5 c5be
00000220: 6a47 04bf c35e 463e 5fa0 783e bf1a 3fbd
00000230: ad01 c6bd 66f4 223e 9a5d 60be dd55 ec3c
00000240: 0147 863d 997f 4fbe daef 9abe f50a 78be
00000250: 79a6 a2be 1f7a fcbb cd9b 8a3e 2d6e a4bd
00000260: ca29 22be 8636 dfbc 079f b0be ef77 f03d
00000270: ad8a fb3d 6020 90be a967 1dbe 0852 f13d
00000280: b869 693e 93c5 793d 8557 25be ab51 2c3d
00000290: 2dc5 55be fd51 55bd 77c9 183e 486d 433e
000002a0: d279 b8be 71cc 3d3d 5b08 313d 1fd2 bd3d
000002b0: fcb0 cbbe baad a83e fb02 1c3d e3b6 39bc
000002c0: 91bb 27be 5066 adbe 814e 503e 4fcc 7bbe
000002d0: 534d 92be c882 78be 603d 343e 78a1 72be
000002e0: 1e6d 643d a3de 1f3e fac5 263f 6444 58be
000002f0: d94d 2abe 5dcf e03d 5433 05bf ce4a f2bd
00000300: 2744 8a3d 8a83 e33c b395 103e 6881 543d
00000310: f221 1dbe 0142 2b3e b793 81be 6098 78bd
00000320: 955a a93b 907a 64bd 9456 fc3d 6690 933b
00000330: a254 60bb f6f0 4cbc af23 663e 1ef6 b8be
00000340: 84f2 71be 6b9c 82bd 6c6c ebbd 0f99 6cbe
00000350: f586 e33c 3325 023e 5a45 fabd 47ad f23d
00000360: 2813 bc3d 4b90 363e fad2 fe3d 8e08 4bbd
00000370: c040 6abe 99fd b03c e6fd 01bd 32a1 89bc
00000380: 54b1 043d 0c28 abbe 8fb7 c63c cf5d 70be
00000390: 4ed0 803e 30a4 573e 47dc 2b3e faa0 df3c
000003a0: 386f b03e 8855 07be 5b66 4b3e cc36 02be
000003b0: b2ef 09be c394 93bb ed57 b83d 6932 d03d
000003c0: 6c5a 273e f754 333d 2978 91be 257e d63e
000003d0: f8dd 763e bdeb e43c 7571 84be 93b0 6e3d
000003e0: 3f53 97be fcce babd c76c 343d 2592 023e
000003f0: 61f1 913e d835 703e cc9d fc3d e32f c3be
0.15016899 0.08403482 -0.08057081 -0.22501908 -0.10500585 0.14498672 -0.5190272 0.14759603
0.23144567 0.026344389 -0.11789965 -0.0062415428 0.10658675 -0.273756 0.11760528 -0.0017504286
0.1942978 -0.14218132 0.10166048 0.09393582 0.023618422 -0.012626688 -0.065764666 0.25755072
-0.114673935 -0.018280886 -0.14409177 -0.08689398 -0.3927181 -0.28558102 -0.42508978 -0.24376157
-0.355765 0.04496266 0.02260577 0.24217829 -0.0083478335 -0.01489095 0.12592986 -0.42884523
0.11026499 -0.21478024 0.046263758 -0.40770432 0.18818581 0.0140183 -0.0347669 0.13089472
-0.19663097 0.18368813 -0.22618227 0.0820836 -0.03884029 0.0011004963 -0.35907257 -0.24166147
0.1574207 -0.10302909 0.040872954 0.17722666 -0.4857981 -0.24161643 0.057933804 -0.3188588
-0.066950694 0.0944073 -0.45630047 -0.06374559 0.07364476 -0.0025352505 0.09219454 0.20952521
0.0018766273 -0.08920708 -0.043663703 -0.20793611 -0.17949331 -0.1827906 0.0422153 0.04840609
-0.02164402 0.07813537 -0.12191128 0.05685532 -0.0028225346 0.070981294 0.060990732 0.14975506
-0.113894954 0.055214323 -0.2806324 -0.14274372 0.11996032 0.10416571 -0.3808299 -0.31398305
0.046014607 0.06232601 0.00759539 0.104279436 -0.41043288 -0.12799518 -0.28882417 -0.13374035
0.15357548 0.039956562 -0.15855826 -0.27268124 -0.05433863 0.013134731 -0.041112732 -0.02877955
-0.28788808 0.036457498 0.16229084 -0.03358233 0.110680774 0.12032597 0.026155896 0.05936734
-0.41367182 0.12155438 0.06490349 0.094416216 0.05918304 0.1412312 -0.33491313 0.11087523
-0.28038085 -0.26032615 -0.21781199 0.18029849 -0.07753247 -0.27185297 0.114588425 -0.38627157
-0.5167147 0.19372086 0.24279927 -0.046656366 -0.096682884 0.15913543 -0.21910706 0.028849537
0.06556512 -0.20263518 -0.30261117 -0.2422293 -0.31767634 -0.0077049877 0.27071992 -0.08028827
-0.15836254 -0.027247678 -0.34496328 0.117416255 0.1228231 -0.281497 -0.15371574 0.11783224
0.22794235 0.060979437 -0.16146667 0.042070072 -0.20875998 -0.052080143 0.14920603 0.19084656
-0.36030442 0.04633755 0.04322086 0.09268593 -0.39783466 0.32945043 0.03808878 -0.0113351075
-0.16380145 -0.3386712 0.20342447 -0.24589656 -0.2857462 -0.24268639 0.17601538 -0.23694408
0.055768125 0.15612273 0.6514584 -0.21119839 -0.16631259 0.109770514 -0.52031446 -0.11830674
0.0675128 0.027772684 0.14119606 0.051881224 -0.1534498 0.16724397 -0.2530801 -0.06069219
0.005168269 -0.055780947 0.12321201 0.0045032976 -0.0034230133 -0.012508621 0.2247455 -0.36125273
-0.23627669 -0.063774906 -0.11495289 -0.23105262 0.027774313 0.12709503 -0.12220259 0.11849456
0.09183341 0.17828481 0.12442584 -0.049568705 -0.22876263 0.0216053 -0.031736277 -0.016800497
0.032395676 -0.3342899 0.02425745 -0.23473285 0.25158924 0.21058726 0.16783248 0.02729844
0.34459853 -0.13216221 0.19863264 -0.12716216 -0.13470343 -0.0045038178 0.090011455 0.10165865
0.16343087 0.0437822 -0.28411987 0.41893116 0.24108112 0.02794444 -0.2586781 0.058273863
-0.295557 -0.091215104 0.04404905 0.12751062 0.2850447 0.2345804 0.12334785 -0.38122472

fc2.bias f4 [10]
00000000: 6b9e 1fbe 9d20 a63c 00c4 2dbd 2964 dcbc
00000010: eba6 043e c241 913b 390a 6dbd 2653 f5bc
00000020: 0ad2 6abc 129e 2f3d
-0.15587775 0.020279223 -0.04242325 -0.026903229 0.12954299 0.004432888 -0.057871077 -0.029946875
-0.014332304 0.042875357
