model_data/mlp_data.pth (torch, 409176 bytes, 4 tensors)

fc1.weight f4 [128, 784]
00000000: bfdb c1be 0ff6 2b3e 2d3d 753e cabc b5bd
00000010: a58b 10bb 97db 03bd dc04 d33a d046 08be
00000020: 7383 fdbc 2549 a4b6 0877 e7bc c010 8c3b
00000030: b5fb ddbc be15 e73c c541 693c 0cc0 9e3c
00000040: 93ae 6e3a 5108 d4bc 8862 e83c d2a5 00bd
00000050: 45aa 383d 018b 453b 3d41 87bb eb3a 673b
00000060: 517c f0bc 712b d1bc 9c9b 85bc ae08 cebc
00000070: 1c72 103c 6eb8 3f3b bc5c 1e3c 8aee 09bc
00000080: dcfa b8b9 df3d 053d f308 ccbc ee77 043c
00000090: 137a fd3b 631a b53c 3b08 0e3d b84b 093d
000000a0: feb1 9f3c c036 043d ef5d 83bc 0062 38bc
000000b0: 9444 95b9 da74 c5bc 1e90 eebc e864 cabb
000000c0: 4073 be3c 0ce1 96be 3abc d8be 4c6e 20bd
000000d0: 1b6f 53bc 6e3d e33b e7bc debc 8c81 2c3c
000000e0: 90c3 46bd d16a a9bc 393f 03bd dcd6 513c
000000f0: 0ea5 d2bc dca7 e03c b36e 293c c3de febc
00000100: 9032 8fbc 951f 9f3c 6e9e 263c ede9 34bc
00000110: d3a8 a5bb e3e3 ed3c 6045 c63d 4927 7fbd
00000120: 9ff5 163f 6a22 293f 3858 253f 9e06 2e3f
00000130: 4b43 303f 5a2e 0a3f 878d 06be 006f 57bf
00000140: a489 bfbf b226 9fbf 47fe 9dbf 9f3d 23bf
00000150: 6b83 22bf c1a5 d6bd c2c4 a4bc 1c76 3e3b
00000160: d97a 053d 7f65 abbc b78b 9abb 23d8 d53c
00000170: b6c9 053d 93fa 293b 7418 80bc 0737 2bbd
00000180: e751 bc3c ba7a f03e 00cc 263f 0df5 283f
00000190: eaa1 973e 9b46 2c3d 3ccd cd3d dbdb a53e
000001a0: da06 883e 63a6 e93e f6b2 1c3e 8026 7cbe
000001b0: 9efa d0be ad07 0bbf 5e58 16be 4997 92be
000001c0: cffd 46bf 055c 69bf 693c 5abf c122 22bf
000001d0: 9b66 27be 63ab 5d3e 672a 6e3e d103 b7bc
000001e0: 651d 5ebc 694b b9bc 0f05 753d 28db 2c3f
000001f0: 6fc0 6cbd d3e4 be3d e49a 7a3f 75ad 633f
00000200: a96a a6bd 6065 553d 65fc d63d 53a8 243e
00000210: 7d49 d7bc b3f5 3d3e e73d 493e 6d97 aa3e
00000220: f39f 4b3e 080c 223d c99d d8be f7d0 5abf
00000230: a1ec d5be e8aa 8abe 004b 01bd 2f3c c13e
00000240: 6eca ba3e ca47 a9bd 58ac bb3e 0a20 0f3c
00000250: 93c2 95bb f52d 83bc 49ef 2d3e 4f42 863f
00000260: 43c3 20bf 8713 b4bd 0f08 013f 469f db3e
00000270: e790 fe3e c75c db3e 221f 9e3e d615 643e
00000280: 7f15 963d 4ecc 933e c93e c23e 9a74 8f3e
00000290: 248e 933e 6b8b e63e 039a bb3e e942 7d3e
000002a0: 216e ec3d ccad 233d 327d 8cbe a817 de3d
000002b0: 3c30 563e 5ab9 f8bb ed3c be3e 4f90 d63c
000002c0: c32d db3c 2194 9f3d 2bb5 87bd 3058 5a3d
000002d0: 6f4f 48bf 5136 a6bd b397 1dbd 4060 593e
000002e0: 21c3 ba3e caed 813e b6a7 113f 60a1 633e
000002f0: 9994 b63e 82a4 ea3e 6ed3 f73e e3ea 1d3f
00000300: 317e d03e 3a3c df3e cc07 243f 0cb3 663e
00000310: b981 d7bd 09ae 81bd 5bc5 a2be bb04 233e
00000320: 5003 c7be f686 d5be 274b 70bd 9353 e73d
00000330: 9d11 e83b f056 2f3e 5720 063e 0dfc 76bd
00000340: bdbe 87be 6171 8a3d dda3 fa3c 1ae4 6e3d
00000350: 3595 a63d 22ea ef3d 80cf 8b3c ad7a 8e3e
00000360: c1ab 943e c02f 3b3f 143d a83e 2eab b83e
00000370: f0aa 0c3f bd17 6e3e 6e5a e23e 8d8b 423e
00000380: 0f69 6ebd f13a 6dbd 979a bebc 4d08 43be
00000390: f6fd dbbe 254e 0cbf 9467 b63e 6893 763c
000003a0: 8549 d83c 9ca1 53bc cfaf 3f3e daf3 833d
000003b0: f1fa 823e 1f87 c3be 147c 9bbe c086 32be
000003c0: de5e 533d bfb8 10be b755 103e a78d 683e
000003d0: 28af 953e 1515 3c3e 2352 263e eb1c 273e
000003e0: bb58 6a3d 530a c13e 48fb d03e 6739 9c3e
000003f0: 2139 2abd c4cc efbc e0e1 bb3e b11e 68bd
-0.37862965 0.16793083 0.23949118 -0.08873899 -0.002205589 -0.03219184 0.0016099471 -0.13308263
-0.030946469 -4.896096e-06 -0.028255 0.0042744577 -0.027097562 0.02820861 0.014236872 0.019378684
0.0009104993 -0.025882872 0.028367296 -0.03140814 0.045084257 0.0030142667 -0.00412765 0.003528292
-0.029356154 -0.02553341 -0.016309552 -0.025150623 0.008816268 0.0029254216 0.009665664 -0.008418689
-0.0003528212 0.032529708 -0.024906611 0.008085234 0.0077354996 0.022107309 0.034675818 0.033519477
0.019494053 0.032278776 -0.016036002 -0.011253834 -0.0002847059 -0.02410357 -0.029121455 -0.0061765797
0.023248315 -0.29468572 -0.42331105 -0.039167687 -0.012904908 0.006934813 -0.027189685 0.010528933
-0.048526347 -0.020680817 -0.032042716 0.012807574 -0.02571347 0.027423792 0.010341334 -0.03111208
-0.017480165 0.01942424 0.0101696085 -0.0110421 -0.005055526 0.029039329 0.09681201 -0.062293325
0.5896854 0.66068137 0.64587736 0.6797885 0.6885268 0.53976977 -0.13139926 -0.8415375
-1.496388 -1.2433684 -1.2343224 -0.637659 -0.6348178 -0.10480834 -0.020113353 0.0029062098
0.03258786 -0.02092242 -0.0047163623 0.026104039 0.03266307 0.0025936707 -0.01563666 -0.041800525
0.022988273 0.46968633 0.6515503 0.6599892 0.29615718 0.042059522 0.10048911 0.323943
0.26567727 0.45634755 0.15302643 -0.24624062 -0.40816206 -0.5430859 -0.14682147 -0.28631046
-0.7773103 -0.91156036 -0.8524843 -0.6333428 -0.16347735 0.2164741 0.23258363 -0.022340687
-0.013556813 -0.022618966 0.059819277 0.67521906 -0.057800706 0.093209885 0.97892594 0.8893655
-0.081258126 0.05209863 0.10497359 0.16079836 -0.02628016 0.18550758 0.1965252 0.33318654
0.19885235 0.039562255 -0.4230788 -0.85475105 -0.41782096 -0.27083516 -0.031565666 0.3774123
0.36482567 -0.08265646 0.36654925 0.008735666 -0.004570314 -0.016013125 0.16985811 1.0488986
-0.62797946 -0.08792787 0.5040292 0.42894953 0.49719927 0.4284422 0.30883127 0.22273955
0.07328319 0.2886681 0.37938526 0.28018647 0.28819382 0.45028242 0.3664094 0.24732555
0.11544443 0.039960667 -0.27439266 0.10844356 0.20916837 -0.007590455 0.37155858 0.026191859
0.02675522 0.07791925 -0.06626352 0.05330676 -0.78246206 -0.08115829 -0.03847475 0.21228123
0.36476997 0.2537673 0.5689653 0.22229528 0.35660246 0.45828635 0.48403496 0.61686534
0.40721276 0.43600637 0.640744 0.22529238 -0.105227895 -0.06332023 -0.31791195 0.15919773
-0.38869715 -0.4170453 -0.05866542 0.112952374 0.007082178 0.17123008 0.13098274 -0.060298968
-0.2651271 0.067599066 0.030595714 0.058323003 0.08133928 0.11714579 0.017066717 0.2782797
0.29037288 0.73119736 0.328591 0.360681 0.5494833 0.23251243 0.44209617 0.18998547
-0.05820566 -0.05791754 -0.023267074 -0.19046135 -0.42967194 -0.5480674 0.356259 0.015049793
0.026402244 -0.012916949 0.1871941 0.06442995 0.25582078 -0.38189027 -0.30368102 -0.17434216
0.051604144 -0.14132975 0.14095198 0.22710286 0.29235196 0.18367417 0.1624227 0.16319625
0.057213526 0.3770319 0.40816712 0.30512545 -0.04155839 -0.029272445 0.36695766 -0.056669895

fc1.bias f4 [128]
00000000: a23d 87be 7cf1 313e a625 00be 23f1 7b3e
00000010: 6a30 a23d bd74 03be c0d7 213e f237 2bbe
00000020: 73bb 91bc dbb2 09be 0a56 72bd b9ec 79be
00000030: d410 7fbd af6b 9b3d db6b a5bc 4975 b73e
00000040: 4c0b b0bd f031 753c db85 dd3c 4143 c1bd
00000050: fbc0 c6bd 5a30 92bc d3d9 003e 3b0c e13a
00000060: 34f8 c73d c0a1 92be b998 a83d 30c0 ba3d
00000070: 4715 c53d d777 f7bc 6503 223e 939d 94bd
00000080: d447 babd 4d76 44bd 4aea 363e 8373 253d
00000090: f80d 1c3d 3318 72bd a250 babd 3b79 2a3e
000000a0: 018b 743e c4c4 96bd 2dce aa3b f288 233e
000000b0: 14c7 e4bd 397c 5cbe fb71 cc3a f72f e33e
000000c0: 3e59 b43e a162 ba3c fea7 38be 9cc8 92be
000000d0: dafb 19be 77e7 23be d22b 2b3e 8307 a13e
000000e0: 9161 c3bb f11b d83e 42ec aabc 4414 f13d
000000f0: 4323 4dbd 2f90 9b3d 153c ad3d 0e5b d6bd
00000100: e26c 763d 238c 2fbe 4028 01be 47d9 7fbe
00000110: b98f 4b3e 57dc bebe e1ec bb3c f21a 15bc
00000120: 8130 22bd b0cf 62bd 1345 84be 054a a0bc
00000130: 23a1 1a3e 66b9 1d3e 5001 023e 7c22 a0be
00000140: 8f31 acbc 41a4 c63d af29 dfbc 303b 923d
00000150: c21d 363e 54ae 5e3a 6d78 d03e 1d47 43bf
00000160: 5b6d 74bc 784c 763e 1d72 b13e 3118 09bd
00000170: d7a3 d53e 914b 17be d9b7 803e daf1 9b3e
00000180: fbb2 ce3e f389 adbd 2201 0bbd a32f 2fbe
00000190: aed7 c8bc 27ee 52be 0ee5 ebbd 143c bf3e
000001a0: ed8d 6fbe 4fdb fe3e 1ef0 61bc dc37 a5be
000001b0: e635 953e 1686 4dbe baec 2abd fa70 7abe
000001c0: 0369 cc3d 7e38 08bf 1838 ca3e 8866 933e
000001d0: ec47 993e 358c e4bd b869 073d 5669 fabd
000001e0: 0c38 b43e d32d a8be a803 d6bc fb46 093e
000001f0: b880 8abe b62f 0e3e e0bc 983e 2152 903e
-0.2641421 0.17377275 -0.12514362 0.24603705 0.079193905 -0.12837501 0.15804958 -0.1672056
-0.017789578 -0.13447134 -0.059164084 -0.24406709 -0.062271908 0.075888984 -0.020193031 0.3583167
-0.08595905 0.014965519 0.027041366 -0.09436656 -0.09704777 -0.017845321 0.12583093 0.0017169783
0.09764138 -0.2863903 0.082322545 0.09118688 0.09623199 -0.030208511 0.15821607 -0.072566174
-0.090957314 -0.047964383 0.17862812 0.040393364 0.03809926 -0.05910511 -0.09097411 0.16647808
0.23881151 -0.07361749 0.0052125663 0.15970209 -0.11170784 -0.21531762 0.0015597934 0.44372532
0.35224336 0.022752108 -0.18032834 -0.28668678 -0.1503748 -0.16006266 0.16715935 0.31451043
-0.0059625586 0.42208818 -0.02086461 0.117714435 -0.050082456 0.0759586 0.08458725 -0.10466586
0.060162432 -0.17143302 -0.1261301 -0.24985228 0.19879045 -0.3727748 0.022940101 -0.009100663
-0.03959704 -0.055373847 -0.2583395 -0.019566545 0.15100531 0.15402755 0.12695813 -0.3127631
-0.021019725 0.09699298 -0.027241556 0.07140195 0.17784789 0.0008494605 0.40716878 -0.76280385
-0.0149186505 0.24052608 0.34657374 -0.033470336 0.41726562 -0.1477492 0.25140265 0.30457956
0.40370926 -0.08473577 -0.033936627 -0.17108016 -0.024516907 -0.2059866 -0.11518298 0.37350523
-0.23393984 0.49776694 -0.013790159 -0.3226918 0.29142684 -0.20070681 -0.041729666 -0.2445716
0.09980967 -0.532112 0.3949592 0.28789163 0.29937685 -0.11159555 0.033059806 -0.122271225
0.3519901 -0.3284746 -0.02612479 0.13405983 -0.2705133 0.13885388 0.298316 0.2818766

fc2.weight f4 [10, 128]
00000000: 78ba 9b3e 7545 d53e dc5a 37be 93a0 93bf
00000010: ede8 26be 8c3a 913e 1c53 b4bf 5d7e 8c3e
00000020: f7d3 d33e d225 ffbd 38e0 793d b3a6 063e
00000030: 2f1b 383e 729b 8abf 4db8 a23e 308e 9d3c
00000040: 7774 b43e 9fac 96be b9e5 733e a80a ea3d
00000050: 4827 df3c 2be0 4ebc 73d3 0b3f 5125 3d3f
00000060: a235 43bf 2272 8abd 5bb7 bebe fe4b 29bf
00000070: f051 b9bf a954 1bbf 8f4e a7bf ba3a 2dbf
00000080: 36c3 86bf 5868 b73d f891 40bc 842b 023f
00000090: d8ed 2b3e 1575 753c f6a1 833e 3e07 91bf
000000a0: d66b 433e 336e 34bf 62b9 af3e 5939 99bf
000000b0: cc45 da3e 540c ca3d a2b6 47be 33dd 073c
000000c0: 073d 72be 1a13 ab3e b0bb 17bf d136 8e3e
000000d0: 18b4 3a3c da1e 50bd dedc 39bf 8d7f 76be
000000e0: c107 e13d 9bda 8dbe c41e 77be 5615 223f
000000f0: 379f fbbf 3685 2fbf 0ef6 6abd 7753 76bf
00000100: 13a8 803e 7311 9e3d 97c9 c4bf 4b2f e1bc
00000110: 6177 3e3e 4b80 2cbe 7b04 573e 04b6 0b3f
00000120: 2af9 f53a 83ea 2ebe b058 a8be 6319 29bf
00000130: f08b 41be c6ca d5be 869f 4d3e 317f 5b3e
00000140: ccbe 133e cade 453e 03d7 18be 5dbc 0f3d
00000150: df8c 2abe 6bc9 543e bd0a 2d3d ac89 1c3e
00000160: 66a9 bebe 208b 843d 5e03 95bf ea76 01be
00000170: d624 103f 171f 763e 50df 80bf 6138 5cbf
00000180: c0ee ab3d d101 463e c0e2 f83b f80b cc3d
00000190: af98 ddbf d6e5 8dbe bdd6 41bf aeaf c1be
000001a0: a544 b63e 610f e13d b1be 01bf 31f4 3ebf
000001b0: 65c9 43bf 97ca 003e 49d9 fdbd f277 bfbe
000001c0: f6fd 57bf 19ab 853e 7bda 803e 5e60 0d3e
000001d0: 76ec bd3e a7c7 803e 2f25 64bf 7633 873e
000001e0: bef3 85bf a369 3a3e 1fec 843d 6838 5e3e
000001f0: 9dc6 9e3e 77be 8e3e 5dcf dbbf a057 6f3e
00000200: 4484 77bf d3d3 58bf 7d06 8ebe 8ced 0d3f
00000210: 0a5d 373e 4124 88bf 172f 8d3d b82a a1bf
00000220: 14dc babf 754f e43e dc8b 613e d7ea 99bd
00000230: c8b2 60bf 024d 103f 2e9e bcbe 72c1 2cbd
00000240: fd1c 3a3d 3946 fdbe 0ef1 2dbf 315f 96bf
00000250: c5aa babf 1f7a fcbb ac6e 0d3f 4252 50be
00000260: 902f 22bf bb7a 05be 7cce babf 220a 803e
00000270: 9ccb 2c3e ea27 8ebf be95 32bf 05e2 4d3e
00000280: fa72 4b3f 6863 263e d9ca c5bd 06fc c73e
00000290: 8c2f 7dbe e091 823e 4a65 6b3e 327f c63e
000002a0: e0c8 c4bf 03a9 d73c f3e7 143e cf9b 1b3e
000002b0: 5925 c1bf c468 4c3f 52e3 c33d df82 49bd
000002c0: a4a7 503e 7769 51bf 32a8 d13e 1f1a b7be
000002d0: 8155 71bf b52d bdbe ec40 d8bc 2361 c9be
000002e0: f275 cc3e 29cd 073e 22a8 9d3f 182e f8be
000002f0: 40e8 94bd 1195 3b3e 7a85 efbf 9d73 6fbe
00000300: 3468 c23e 3367 92be b582 3f3f 9d05 c63d
00000310: 4084 8fbe 2523 5a3e 0168 83be 3986 90bd
00000320: 955a a93b 89ef 17be dede b93e 23f4 8fbe
00000330: 815f 0d3d cc1b 323d 8f16 073f 6c75 90bf
00000340: d85b bcbe 0db7 b0bd 9591 aebe c852 a2bf
00000350: b321 41bd 14e0 613e fd0b 89be 564d 8f3e
00000360: 2855 a13e c2bc d03e d204 923f 5f99 a93d
00000370: 472f 80bf 3cbd 053f 2cac c93c 7ee2 09be
00000380: 26ba f83d f155 ccbf 8fb7 c63c c204 bcbe
00000390: d4c8 213e 2349 db3e 4bd1 493e ea2b 943e
000003a0: a361 543f 634e 07bf 313d b93e 4398 0bbe
000003b0: f5c2 c8be 4099 393e cca5 f3bd d2cf 203e
000003c0: f624 9c3e 0e6d bb3d ed2a e4be 0efc 5f3f
000003d0: b3a0 d43e e14e 1dbd cb0a 86bf 47a8 2a3e
000003e0: 16af 6dbf 2a8d ebbd c76c 343d 6317 1d3e
000003f0: 5f57 ff3e 87d7 963e 8fe9 863c 85e8 8ebf
0.30415702 0.41654554 -0.17905754 -1.1533378 -0.16299792 0.2836498 -1.4087863 0.27440158
0.41372654 -0.124583855 0.061004847 0.13149528 0.1797912 -1.0828688 0.31781235 0.01923284
0.35245106 -0.29428574 0.23818101 0.11427814 0.02724041 -0.012626688 0.5461952 0.73885065
-0.7625371 -0.0676005 -0.37249264 -0.6613158 -1.447813 -0.60676056 -1.3070849 -0.67667735
-1.0528324 0.08955449 -0.011753552 0.5084765 0.16789949 0.014981528 0.25709504 -1.1330335
0.19084105 -0.7048065 0.34321123 -1.1970626 0.42631376 0.09865633 -0.19503263 0.008292484
-0.23656093 0.3341301 -0.59270763 0.27776197 0.011395477 -0.050810672 -0.7260264 -0.24072094
0.10987807 -0.27705845 -0.2413283 0.63313806 -1.9657964 -0.6856264 -0.057363562 -0.9622111
0.2512823 0.07718172 -1.537402 -0.027488371 0.18600227 -0.16845815 0.20997803 0.5457461
0.0018766273 -0.17081647 -0.32880163 -0.6605436 -0.18901038 -0.41756266 0.20080385 0.21435238
0.14428252 0.19323269 -0.1492577 0.035091747 -0.166553 0.2077996 0.04224657 0.15286893
-0.37238616 0.064718485 -1.1641653 -0.12643018 0.5630621 0.24035297 -1.006815 -0.8602353
0.08395147 0.1933663 0.00759539 0.0996322 -1.731222 -0.27714413 -0.7571829 -0.37829345
0.35599247 0.109892614 -0.50681597 -0.74591357 -0.7647918 0.12577282 -0.123949595 -0.373962
-0.8437189 0.261071 0.25166687 0.13806292 0.37094468 0.25152323 -0.8911924 0.2640645
-1.0465009 0.1820436 0.06490349 0.21701205 0.31010905 0.27879688 -1.7172657 0.2337327
-0.96686196 -0.8469822 -0.27739325 0.5544059 0.17906585 -1.0636064 0.06893747 -1.2591162
-1.4598413 0.4459187 0.22026008 -0.07515495 -0.877728 0.56367505 -0.36839432 -0.04217667
0.0454378 -0.49467638 -0.67945945 -1.17478 -1.4583365 -0.0077049877 0.55246997 -0.20343879
-0.63353825 -0.13035099 -1.4594264 0.2500773 0.16874546 -1.1105931 -0.6975974 0.20105751
0.79472315 0.16248858 -0.09657831 0.39059466 -0.24725169 0.2550192 0.22987857 0.38768917
-1.5373802 0.026325708 0.14541607 0.15196155 -1.5089523 0.7984736 0.09564842 -0.049197074
0.2037645 -0.8180155 0.40948635 -0.35762116 -0.94271094 -0.36948934 -0.026398145 -0.39331922
0.39933735 0.13261856 1.2316935 -0.48472667 -0.07270861 0.18318583 -1.8712609 -0.23383947
0.37970126 -0.2859436 0.7480882 0.096690394 -0.28030586 0.21302469 -0.25665286 -0.07056851
0.005168269 -0.14837469 0.36302847 -0.2811595 0.034514908 0.04348354 0.52768797 -1.1285834
-0.3678882 -0.08628664 -0.34095445 -1.2681513 -0.04715128 0.22058135 -0.2676696 0.2798869
0.31510282 0.4076901 1.1407721 0.08281206 -1.0014428 0.52241874 0.02461823 -0.13465306
0.1214488 -1.5963727 0.02425745 -0.3672238 0.15799266 0.42829236 0.19708745 0.28939754
0.8296148 -0.52853984 0.36179498 -0.13632302 -0.3921124 0.18124866 -0.118968576 0.15704277
0.3049695 0.0915166 -0.44564 0.8749398 0.41528854 -0.038405303 -1.0472044 0.16665755
-0.92845285 -0.11501534 0.04404905 0.15340953 0.49871346 0.2946131 0.016468791 -1.1164709

fc2.bias f4 [10]
00000000: 6892 75be 64d9 24be d0dc 7cbe 65c1 86bd
00000010: 9de7 8e3e 1654 b0bd 7b60 8cbc 7dbb acbe
00000020: a975 f53e 2b35 843d
-0.23981631 -0.16098553 -0.24693608 -0.06579856 0.27911082 -0.08609788 -0.01713585 -0.33736792
0.4794133 0.064554535
