model_data/rnn_data.pth (torch, 475666 bytes, 6 tensors)

rnn.weight_ih_l0 f4 [128, 784]
0	0xbd51d9aa	-0.05123297
1	0xbe1b9615	-0.1519397
2	0xbc7b9f1b	-0.015357758
3	0x3be0eb12	0.00686396
4	0xbd0992ab	-0.03358714
5	0xbdb15f33	-0.08660736
6	0x3d34e652	0.044164963
7	0x3bb32841	0.005467445
8	0x3d89acc9	0.06722409
9	0x3d9e799f	0.07738041
10	0xbc87a29c	-0.01655703
11	0x3c3e8c10	0.011630073
12	0xbb679a80	-0.0035339892
13	0x3d5167ba	0.051124312
14	0x3da799e5	0.0818365
15	0x3d8130c7	0.06308132
16	0x3ce3595c	0.02775257
17	0xbc3c5b10	-0.01149632
18	0xbd7af4f6	-0.06126877
19	0xbd9ebbcc	-0.07750663
20	0x3d88a0e2	0.06671311
21	0x3d9b13fe	0.075721726
22	0xbd691bba	-0.056911208
23	0x3d2331fd	0.039842594
24	0x3c236e00	0.0099749565
25	0x3c8ad034	0.016944982
26	0xbd8016bf	-0.062543385
27	0xbc7fbb18	-0.0156085715
28	0x3d7831aa	0.06059424
29	0xbc6bad18	-0.0143845305
30	0x3d823ae9	0.063588925
31	0xbd193873	-0.03740735
32	0x3d305fae	0.043059997
33	0x3c1e62c8	0.009667106
34	0x3a054b80	0.0005084798
35	0x3da9e9e5	0.08296565
36	0xbd23887d	-0.039925087
37	0xbcaddafc	-0.021222584
38	0x3d94e909	0.072710104
39	0x3c0ed3e8	0.008717515
40	0x3d64c436	0.055851184
41	0x3d882927	0.06648474
42	0x3d0e7fcf	0.034789857
43	0x3d9bda2e	0.07609974
44	0x3dedac1e	0.116050944
45	0x3d20b272	0.03923268
46	0xbd1352c8	-0.03596762
47	0x3ddf3b6d	0.109000064
48	0x3e15a5ed	0.14614077
49	0xbd335276	-0.043779813
50	0xbe2e7cb7	-0.17039762
51	0xbd981d58	-0.07427472
52	0x3e4a7252	0.19770172
53	0x3e232a72	0.1593416
54	0xbd1d3b31	-0.038386527
55	0x3e0f59d0	0.13999104
56	0x3df0cd5d	0.1175792
57	0x3ca36bda	0.019948889
58	0x3da4e47b	0.08051392
59	0xbc914c4a	-0.017736573
60	0xbd40acff	-0.047039982
61	0xbc8f6018	-0.017501876
62	0x3c4459d8	0.011984311
63	0x3c8d4f68	0.017249778
64	0x3d2d184a	0.042259492
65	0x3d3dd2aa	0.046343483
66	0xbdbb1570	-0.09134948
67	0xbb98e944	-0.0046664793
68	0x3d0547c7	0.032539155
69	0xbca401a1	-0.020020308
70	0x3d827402	0.06369783
71	0x3d0b286e	0.033974104
72	0x3d09a5f3	0.033605527
73	0x3e5ae93b	0.21378033
74	0x3d937ad9	0.07201166
75	0x3da659e8	0.08122617
76	0x3dedfe33	0.1162075
77	0x3b1d8cfe	0.0024040337
78	0xbd9e4e78	-0.077298105
79	0xbdb07b46	-0.086172625
80	0xbd868136	-0.06567614
81	0x3e44ba24	0.19211632
82	0x3e4e16a3	0.20125823
83	0x3d4a734f	0.049426373
84	0x3d8001fe	0.0625038
85	0x3c14c15b	0.009079303
86	0x3d2465c4	0.040136114
87	0xbc6d34f3	-0.014477956
88	0xbcfb8aa2	-0.030705754
89	0x3d5ac235	0.053407867
90	0xbd1f01f0	-0.038820207
91	0xbd6fab9c	-0.05851327
92	0x3c9a1458	0.018808529
93	0xbd24d197	-0.040238943
94	0xbe38de1b	-0.18053477
95	0x3cc26409	0.023729341
96	0xbc7efbc1	-0.0155629525
97	0xbca95513	-0.02067045
98	0xbbed555d	-0.007242842
99	0xbd6349d6	-0.055490337
100	0x3c7aca6c	0.01530705
101	0x3e50f412	0.20405605
102	0x3e597c4f	0.21238826
103	0x3d555de3	0.05209149
104	0x3db82fac	0.08993468
105	0x3d54001f	0.051757928
106	0x3e39d031	0.18145825
107	0x3e8974a5	0.26846805
108	0x3e1149a1	0.14188243
109	0x3e41b12c	0.18915242
110	0x3dee5d03	0.11638834
111	0x3d616299	0.05502567
112	0x3be18e57	0.0068834233
113	0x3e75cbf8	0.24003589
114	0x3e1024e5	0.14076574
115	0xbd6e53c7	-0.058185365
116	0xbced6cba	-0.028982509
117	0xbd4282eb	-0.047488134
118	0xbc0c69ed	-0.008570177
119	0x3d8f06b1	0.06983698
120	0x3d30c222	0.04315389
121	0x3d9ba57c	0.07599923
122	0xbd0bd56e	-0.03413909
123	0xbe1cc8c2	-0.15310958
124	0xbe0d487d	-0.13797183
125	0xbe26b05f	-0.16278218
126	0x3c876b9d	0.016530806
127	0x3de31956	0.11088817
128	0xbda8ec74	-0.08248225
129	0xbd48c73b	-0.049018126
130	0xba9e625a	-0.0012083754
131	0xbdb44495	-0.088021435
132	0x3c290f3e	0.010318575
133	0xbdd9250e	-0.10602771
134	0x3d49442f	0.04913729
135	0x3ddb2a94	0.107014805
136	0x3dfd8f13	0.12380805
137	0x3dcdfece	0.10058366
138	0x3e5ad5ec	0.21370667
139	0x3e147f75	0.14501746
140	0x3e14ca19	0.14530219
141	0x3df1377f	0.11778163
142	0x3e23925a	0.15973797
143	0x3dbf663b	0.09345671
144	0x3df68b2d	0.120382644
145	0x3e07e1b4	0.13269693
146	0x3a9046a6	0.0011007383
147	0x3bd29072	0.0064259106
148	0x3d8f1625	0.069866456
149	0xbd9462e7	-0.072454266
150	0xbcfe77f4	-0.031063057
151	0xbde5bb59	-0.11217374
152	0xbd66f2a7	-0.056383755
153	0xbe17259d	-0.14760442
154	0xbe1e9f68	-0.15490496
155	0xbdba570b	-0.090986334
156	0xbe11bf23	-0.14233069
157	0xbe204895	-0.15652688
158	0xbe037981	-0.12839319
159	0xbdd4cc3b	-0.10390516
160	0xbd9f06d8	-0.07764977
161	0xbdb1f282	-0.08688833
162	0xbcdc9d7e	-0.026930567
163	0xbd6b28e5	-0.057412047
164	0x3c9d294e	0.019184735
165	0x3e3f062d	0.186547
166	0x3e9a6966	0.30158538
167	0x3e98e21a	0.29860002
168	0x3ec7d6dd	0.39031115
169	0x3e73064c	0.23732871
170	0x3e8366f4	0.25664485
171	0x3e6986b6	0.22805294
172	0x3e06ded9	0.13170947
173	0x3bf8baf9	0.0075906483
174	0x3dd46a68	0.10371858
175	0xbc247a9f	-0.010039001
176	0x3dafd5f9	0.08585734
177	0xbd44687b	-0.047951203
178	0x3c598b5d	0.013277856
179	0xbd5e35d8	-0.05425057
180	0xbcc33c76	-0.023832541
181	0xbdde36a0	-0.10850263
182	0xbdf4f0fc	-0.119600266
183	0xbdfc0ed3	-0.12307515
184	0xbe10ac92	-0.1412833
185	0xbdb73cdc	-0.08947155
186	0xbddacddd	-0.106837966
187	0xbe0248c9	-0.12723078
188	0xbd982b24	-0.074301034
189	0xbdd616df	-0.10453581
190	0xbd725472	-0.059162565
191	0xbcc7a945	-0.024372706
192	0xbd5d6cb9	-0.054058764
193	0xbc8a9e75	-0.016921261
194	0x3de388b1	0.11110056
195	0x3efb4086	0.49072665
196	0x3e98a1a9	0.29810837
197	0x3e5b8878	0.21438777
198	0x3e8b8a89	0.2725413
199	0x3e64c17f	0.22339438
200	0x3e377a55	0.1791776
201	0x3e11064f	0.14162563
202	0x3d164efa	0.03669641
203	0x3db2c0f9	0.08728213
204	0xbd1b9a5c	-0.037989005
205	0x3c025d3e	0.007956801
206	0xbd528b0d	-0.05140214
207	0xbe582723	-0.2110868
208	0xbd0bde68	-0.03414765
209	0xbcdfca1b	-0.027318051
210	0xbd0f51fe	-0.034990303
211	0xbc818807	-0.015811933
212	0xbdab5573	-0.083659075
213	0xbc79edc4	-0.015254442
214	0xbdac467e	-0.08411883
215	0x3d1c6795	0.03818472
216	0xbda2da51	-0.07951797
217	0xbdd85e03	-0.10564806
218	0xbd09d1ee	-0.03364747
219	0xbd49a84e	-0.049232773
220	0xbd71d3dc	-0.059039935
221	0x3d45d0b8	0.048294753
222	0x3e282a46	0.16422376
223	0x3ea03894	0.31293166
224	0x3eaa6781	0.33282092
225	0x3e851bda	0.25997812
226	0x3e49351c	0.19649166
227	0x3e809e84	0.25120938
228	0x3dc5acb4	0.09652081
229	0x3de4244e	0.11139737
230	0x3d327445	0.043567915
231	0x3e1d3be5	0.15354879
232	0xbccef309	-0.025262373
233	0xbdbbcc1f	-0.091697924
234	0xbd5137a6	-0.05107846
235	0xbdab5532	-0.08365859
236	0xbd7aa908	-0.061196357
237	0x3d500a45	0.050791044
238	0xbcb91b79	-0.022596108
239	0xbd4bb857	-0.049736347
240	0x3cca35df	0.02468389
241	0x3d8bb4af	0.06821572
242	0x3d85a9b0	0.06526506
243	0x3e28f7f9	0.16500844
244	0xbca87646	-0.02056421
245	0x3d2569e3	0.040384185
246	0xbdc89f4a	-0.09796007
247	0xbe54cc49	-0.20781054
248	0xbd27406c	-0.04083292
249	0x3daa02d6	0.08301322
250	0x3dfb0b01	0.12257958
251	0x3ec35356	0.38149518
252	0x3e8f1ad5	0.2795016
253	0x3e3e4c3b	0.18583767
254	0x3e143fa2	0.14477399
255	0x3e8e3010	0.27771044

rnn.weight_hh_l0 f4 [128, 128]
0	0x3d85cde7	0.065334134
1	0x3bf7a020	0.00755693
2	0xbd684cdd	-0.056713928
3	0xbc918340	-0.01776278
4	0xbd57a64a	-0.05264882
5	0x3cb9a1ec	0.022660218
6	0xbcb746c8	-0.022372618
7	0xbcc01414	-0.023447074
8	0x3d8b4029	0.06799347
9	0x3c060d78	0.008181922
10	0xbd820f3c	-0.06350562
11	0x3d3651ba	0.044511534
12	0xbd27a471	-0.040928308
13	0x3d2bf83e	0.04198479
14	0x3cf5aaec	0.029988728
15	0xbda4165b	-0.080120765
16	0x3ca59248	0.020211354
17	0xbd7e14b5	-0.062031467
18	0x3db404bb	0.08789965
19	0x3cdb36c8	0.02675952
20	0xbaab8ac0	-0.0013087615
21	0xbcf04842	-0.02933133
22	0x3c88b2fc	0.016686909
23	0xbd970c04	-0.07375339
24	0x3b1e3be0	0.0024144575
25	0xbbbba1b0	-0.0057260618
26	0x3abf4280	0.0014591962
27	0x3d6d5c9a	0.05794964
28	0x3d98f919	0.074693866
29	0xbd466c57	-0.048443165
30	0xbcb3ee88	-0.021964327
31	0xbd7e45d4	-0.062078312
32	0x3db32f1d	0.087492205
33	0x3cbcbd34	0.023039438
34	0xbd8c8f0c	-0.068632215
35	0x3da2031d	0.0791075
36	0x3c02c460	0.00798139
37	0x3d3a3c96	0.045467936
38	0x3c8b5fe8	0.017013505
39	0xbd347297	-0.044054594
40	0x3c2c4e08	0.010516651
41	0x3d9f577f	0.077803604
42	0x3cfc9c28	0.03083618
43	0x3d8516c1	0.064984806
44	0x3d6c1fa6	0.05764737
45	0xbcd39ac4	-0.025830634
46	0x3d0302e8	0.031985193
47	0xbd9de639	-0.07709927
48	0xbd78df54	-0.060759857
49	0x3cb6bb6c	0.022306167
50	0xbd7d194a	-0.061791696
51	0x3c8199d8	0.015820429
52	0x3bce33a0	0.0062927753
53	0x3c3dbb20	0.011580259
54	0x3b287860	0.0025706515
55	0x3c4ccd18	0.01250007
56	0xbd7f6d44	-0.062360063
57	0x3d00cb96	0.031444155
58	0xbd5936e3	-0.05303086
59	0x3d293f82	0.04132033
60	0xbbe421b0	-0.0069620237
61	0x3cbba854	0.022907414
62	0x3c96cf08	0.018409267
63	0xbd8b9b9b	-0.06816789
64	0x3b4015c0	0.002930984
65	0xbdb364dc	-0.08759472
66	0x3b81f720	0.003966227
67	0x3cba6430	0.022752851
68	0x3b22be60	0.002483271
69	0xbda18f85	-0.07888702
70	0x3cf4c3a0	0.029878438
71	0x3cd3e0f0	0.025864094
72	0xbcd14ea8	-0.025550202
73	0xbd45b405	-0.048267383
74	0x3cd4ef90	0.025993139
75	0x3d94d8a5	0.07267884
76	0x3c90df60	0.017684639
77	0x3cfeb628	0.031092718
78	0x3d1bd22a	0.038042225
79	0x3d392c26	0.04520812
80	0xbd89dc0c	-0.06731424
81	0x3d1f4b3e	0.038890116
82	0xbcc86c50	-0.02446571
83	0x3d1587a2	0.036506303
84	0x3caf8e84	0.021430261
85	0x3b99ddc0	0.004695624
86	0xbd9adbc6	-0.0756145
87	0xbc893078	-0.016746745
88	0x3cc6d7b4	0.024272777
89	0x3db114b9	0.08646531
90	0xbbab6b40	-0.005231291
91	0x3d75f792	0.060050555
92	0x3d029752	0.03188259
93	0xbd7a3492	-0.06108529
94	0xbda54b78	-0.08071035
95	0xbda2bbfe	-0.07946013
96	0x3d558a46	0.05213382
97	0x3d57546a	0.052570738
98	0x3da2d1c9	0.079501696
99	0xbdad26df	-0.0845468
100	0xbd3930a3	-0.0452124
101	0xbc53e0c8	-0.01293201
102	0x3ca22610	0.01979354
103	0xbb0c1e40	-0.0021380335
104	0x3d0e7efa	0.034789063
105	0x3d53e29e	0.05172979
106	0xbd2754d6	-0.04085239
107	0x3cf7a3ac	0.030229412
108	0xbda8f264	-0.08249357
109	0x3d153624	0.036428586
110	0xbd488b4a	-0.04896096
111	0xbcbcf8f8	-0.023067936
112	0x3bc07100	0.0058728456
113	0x3b47adc0	0.0030468553
114	0x3d6a13d6	0.057147823
115	0xbd96b5b9	-0.073588796
116	0xbd1e6b6f	-0.038676675
117	0xbd9160b4	-0.07098523
118	0xbd6bb396	-0.057544313
119	0xbbe88f20	-0.00709714
120	0xbd4e62dd	-0.050387252
121	0xbb0d6ce0	-0.0021579787
122	0x39927d00	0.00027940422
123	0xbd92cfc8	-0.071685374
124	0x3d51d0a6	0.051224373
125	0x3c1ae020	0.00945285
126	0x3c354d48	0.011065789
127	0xbd33fd74	-0.043942884
128	0x3d491c8a	0.049099483
129	0x3cae90cc	0.021309279
130	0x3cc4abb0	0.024007648
131	0x3d501ece	0.050810628
132	0x38fdd400	0.00012103468
133	0xbc6a3e68	-0.014297105
134	0xbb6c73e0	-0.003607981
135	0xbd7899ff	-0.060693737
136	0xbd851739	-0.0649857
137	0xbd0da3fb	-0.034580212
138	0xbd857c1e	-0.06517814
139	0xbd0e3d86	-0.034726642
140	0xbd023396	-0.031787477
141	0x3c939d2c	0.018019281
142	0x3cb9260c	0.02260115
143	0x3d78331e	0.060595624
144	0x3c0a65d8	0.008447133
145	0x3d802597	0.0625717
146	0x3d3dcace	0.046335988
147	0xbcdebad0	-0.027188689
148	0xbc27d4c0	-0.010243595
149	0xbd5fdf6c	-0.05465643
150	0xbdad2a6f	-0.08455359
151	0xbd4304a5	-0.04761185
152	0xbda86ed0	-0.08224261
153	0xbc001598	-0.007817648
154	0xbd1330de	-0.035935275
155	0x3d77746e	0.06041377
156	0xbc9f7e1c	-0.019469313
157	0xbd9a111e	-0.07522796
158	0xbd3c50d7	-0.045975532
159	0x3c6fcdd0	0.014636472
160	0xbbfddad0	-0.0077470317
161	0xbc4118a8	-0.011785664
162	0xbd5a3c6b	-0.053280275
163	0xbd2ab79b	-0.041679006
164	0x3d871575	0.065958895
165	0x3c40de18	0.011771701
166	0xbb6f1c20	-0.003648527
167	0xbc9bf4e8	-0.019037679
168	0x3c91fb3c	0.017819993
169	0xbd1264f8	-0.035740823
170	0x3cbb9fd8	0.022903368
171	0xbd21d22c	-0.039507076
172	0x3d4af80e	0.04955297
173	0x3d470c4e	0.04859572
174	0x3d3aa582	0.045567997
175	0x3d2136c6	0.039358877
176	0xbca6e05c	-0.020370655
177	0xbbca4b80	-0.006173551
178	0xbd154204	-0.03643991
179	0x3c17cda0	0.009265333
180	0x3d26cd7a	0.0407233
181	0x3d514976	0.05109545
182	0xbd532650	-0.05155021
183	0x3ab50100	0.0013809502
184	0x3db1dce9	0.086847134
185	0x3c9f4708	0.01944305
186	0x3db1282b	0.086502396
187	0xbd4ff773	-0.050773095
188	0xbd8c01fe	-0.068363175
189	0x3d83e9bd	0.064410664
190	0xbc5e5a10	-0.013571277
191	0xbd593f65	-0.053038973
192	0x3d8a8293	0.06763186
193	0xbce06fd4	-0.027397074
194	0x3d1e9a82	0.03872157
195	0x3d8cc905	0.06874279
196	0xbd6f6415	-0.058445055
197	0xbd64c150	-0.05584842
198	0xbd0558c9	-0.032555375
199	0xbc164830	-0.009172484
200	0xbd97711b	-0.0739462
201	0xbdafc085	-0.08581642
202	0x3b01f9c0	0.00198327
203	0x3d635b0e	0.05550676
204	0x3d1a61ea	0.037691034
205	0x3d7c98e2	0.061669238
206	0xbd8ac80b	-0.067764364
207	0x3c4fa978	0.012674682
208	0x3d2a1f16	0.041533552
209	0x3d46282a	0.048378147
210	0xbd12d17d	-0.035844315
211	0xbc85fed0	-0.016356856
212	0x3c99675c	0.018726043
213	0x3dabb213	0.08383574
214	0xbd048263	-0.03235091
215	0x3d93a4bf	0.07209157
216	0x3d5c5e8a	0.053801097
217	0xbd60701b	-0.054794412
218	0xbdb43193	-0.08798518
219	0x3d910b77	0.07082265
220	0x3da0054d	0.07813511
221	0x3d294102	0.041321762
222	0xbd8a72ea	-0.06760199
223	0xbdacd191	-0.08438409
224	0xbcf1b290	-0.02950409
225	0x3d73ba92	0.0595041
226	0x3d822585	0.063548125
227	0xbdabbc48	-0.08385521
228	0x3d8479af	0.06468522
229	0xbc965bf8	-0.018354401
230	0x3dacbc2f	0.08434331
231	0x3dae8935	0.08522264
232	0xbd3e1b3e	-0.0464127
233	0xbc7a2558	-0.0152676925
234	0xbd33ceeb	-0.043898504
235	0xbd1b62a8	-0.037935883
236	0xbd0b310b	-0.033982318
237	0xbd9472ff	-0.07248496
238	0xbc6709e8	-0.014101483
239	0x3cace86c	0.021106921
240	0x3d66a802	0.05631257
241	0xbd581184	-0.05275108
242	0x3d5e00f6	0.054200135
243	0x3cf0c2a0	0.02938968
244	0x3c995d38	0.018721208
245	0xbd67ed7b	-0.056622963
246	0x3d2412ca	0.04005698
247	0x3d9a1c91	0.0752498
248	0xbd81901c	-0.06326315
249	0x3c736e90	0.014857903
250	0x3da38277	0.079838686
251	0x3d277be6	0.040889643
252	0xbd9de30f	-0.077093236
253	0xbd80861d	-0.0627558
254	0x3d793f22	0.060851224
255	0x3d9b6f9b	0.075896464

rnn.bias_ih_l0 f4 [128]
0	0x3d8356a6	0.06413011
1	0xba46455a	-0.0007563435
2	0xbd8a7764	-0.06761053
3	0xbd0224c3	-0.03177334
4	0x3d9c6b25	0.07637624
5	0x3d05ee35	0.032697875
6	0x3e0b7823	0.13620047
7	0xbe8e497e	-0.27790445
8	0xbdccdee3	-0.1000345
9	0xbdfc26bf	-0.12312078
10	0xbd6caf5e	-0.05778443
11	0xbe19ce29	-0.1502005
12	0x3d85262b	0.065014206
13	0xbde27404	-0.110572845
14	0xbbdcb1df	-0.006735071
15	0x3dac6df1	0.08419407
16	0x3e414089	0.18872274
17	0xbd268899	-0.040657613
18	0xbe47c2b2	-0.19507864
19	0x3e347120	0.17621279
20	0xbe327bba	-0.1743001
21	0x3e8bde31	0.27317956
22	0xbe5a32ce	-0.21308443
23	0xbe1db394	-0.15400535
24	0xbcf48641	-0.029849174
25	0xbda26321	-0.079290636
26	0x3c42a195	0.0118793445
27	0xbe48469d	-0.19558187
28	0xbe05f0bc	-0.13080114
29	0x3e320c86	0.1738759
30	0x3d5dd373	0.05415673
31	0xbd3aa2fd	-0.045565594
32	0xbdc3249d	-0.09528468
33	0xbda0ddff	-0.078548424
34	0xbe09352a	-0.13399187
35	0xbd24f59c	-0.040273294
36	0x3ce67730	0.028133005
37	0x3e47d142	0.1951342
38	0xbcc63921	-0.024197163
39	0x3dc55aba	0.09636445
40	0xbd0210c6	-0.031754278
41	0x3dba664c	0.09101543
42	0x3a861cf6	0.001023202
43	0xbdb757fd	-0.08952329
44	0xbd7c67db	-0.06162248
45	0xbdabaceb	-0.08382591
46	0x3e50760e	0.20357534
47	0xbdee31a6	-0.116305634
48	0xbc9ab672	-0.018885825
49	0xbbf18814	-0.007370958
50	0xbe3babac	-0.18327206
51	0x3c348ff9	0.011020654
52	0x3e7d8318	0.2475704
53	0xbdcdd817	-0.100509815
54	0xbe61dc5e	-0.2205672
55	0x3cf7db17	0.030255837
56	0x3cbde1a0	0.023178875
57	0x3d8bf54f	0.06833898
58	0x3c5caa0e	0.013468279
59	0xbe24ab98	-0.16081083
60	0xbce1ba3b	-0.027554622
61	0xbd7e765b	-0.06212459
62	0xbe1b3320	-0.15156221
63	0xbd75f346	-0.060046457
64	0x3da45799	0.080245204
65	0xbe550e8b	-0.20806329
66	0x3dc885f4	0.097911745
67	0xbd3b0d10	-0.045666754
68	0xbab4a8a4	-0.0013783169
69	0xbe34f4c5	-0.17671497
70	0xbd94e4a5	-0.07270173
71	0xbdfc1029	-0.1230777
72	0xbddb838c	-0.1071845
73	0xbe17229b	-0.14759295
74	0xbde6d102	-0.11270334
75	0x3e0151f5	0.1262892
76	0x3d50f6d6	0.05101665
77	0x3db542f3	0.0885066
78	0xbd38c106	-0.045105956
79	0x3e912ca5	0.28354374
80	0x3d5d4e74	0.054029897
81	0x3d55bb24	0.052180424
82	0xbd527d82	-0.051389225
83	0x3e0df859	0.13864268
84	0xbe35770c	-0.17721194
85	0xbdd6d06f	-0.10488974
86	0xbe081f69	-0.13293232
87	0x3c8106af	0.015750257
88	0x3cb9a2cf	0.022660641
89	0xbd2d1efd	-0.04226588
90	0x3e0fb7a9	0.14034905
91	0xbd300564	-0.04297389
92	0x3ac9d6c4	0.0015399088
93	0x3d80a80a	0.06282051
94	0x3e844753	0.25835666
95	0x3df3e531	0.11908949
96	0xbda02b6d	-0.07820783
97	0xbdf83dbc	-0.1212115
98	0xbc53d89c	-0.012930062
99	0x3d60a8e2	0.05484856
100	0x3e71af00	0.23601913
101	0xbe808c6b	-0.2510713
102	0x3df27b8b	0.1183997
103	0x3d2024b0	0.039097488
104	0xbda17dc0	-0.07885313
105	0xbcd02410	-0.025407821
106	0x3d8f9806	0.07011418
107	0xbc794af3	-0.015215623
108	0x3da1ece1	0.07906509
109	0xbe0418d5	-0.12900098
110	0x3cdf3a5f	0.027249513
111	0x3c8b4c72	0.017004225
112	0x3d4250da	0.047440387
113	0xbd3ae0bb	-0.045624476
114	0x3e05b66a	0.13057867
115	0x3e222cb8	0.15837371
116	0x3d8e9140	0.06961298
117	0x3cb3f183	0.021965748
118	0x3e32fea4	0.1747995
119	0xbc438b11	-0.0119350115
120	0x3cff5bb0	0.03117165
121	0x3d6bea3c	0.05759643
122	0x3cf927f9	0.030414568
123	0xbdbcd96e	-0.09221159
124	0x3e55848b	0.20851342
125	0x3daa972e	0.083296165
126	0xbe0f17f1	-0.13973977
127	0xbe032440	-0.12806797

rnn.bias_hh_l0 f4 [128]
0	0x3d8e1f53	0.06939568
1	0x3dbe9d01	0.0930729
2	0xbdfa638d	-0.12226019
3	0xbc35eb98	-0.011103533
4	0x3c19a13d	0.009376821
5	0x3d8014f2	0.06253995
6	0x3df49684	0.11942771
7	0xbeb8759e	-0.36027235
8	0xbcdd7b74	-0.027036406
9	0xbe239928	-0.15976393
10	0xbe1dd562	-0.1541343
11	0xbdc53a4b	-0.09630259
12	0x3d883e38	0.06652492
13	0xbd678536	-0.056523524
14	0x3dba971d	0.09110854
15	0x3ddcf407	0.10788732
16	0x3e860bce	0.2618088
17	0x3d3bc243	0.04583956
18	0xbdd7db31	-0.10539854
19	0x3db6c1c5	0.08923677
20	0xbe3011f8	-0.17194355
21	0x3e63a0fd	0.22229381
22	0xbded70e8	-0.11593801
23	0xbd9bbef7	-0.07604783
24	0xbc921f39	-0.017837154
25	0x3b9f8017	0.0048675644
26	0xbe019c2f	-0.12657236
27	0xbde300d9	-0.11084146
28	0xbd863d84	-0.06554702
29	0x3e473c24	0.19456536
30	0xbd93633a	-0.0719666
31	0x3d252fc1	0.040328745
32	0xbd9350e1	-0.07193161
33	0x3d950359	0.07276029
34	0xbe19e81f	-0.15029953
35	0xbccc9a49	-0.024975913
36	0x3d56d9e3	0.052453887
37	0x3e13785c	0.14401382
38	0xbd95d9b2	-0.07316913
39	0xbd1974a3	-0.03746475
40	0xbdf5d714	-0.120039135
41	0x3be9ec95	0.0071387985
42	0x3dd62dd3	0.10457959
43	0xbdcc0101	-0.09961129
44	0xbc5f9a43	-0.013647619
45	0xba6c9c99	-0.00090260204
46	0x3d876fd1	0.06613124
47	0xbdc2bb24	-0.095083505
48	0xbb7a7a36	-0.0038219816
49	0xbd4b8f38	-0.04969713
50	0xbd43ce22	-0.047804005
51	0xbd8fa9b6	-0.07014792
52	0x3e25ba65	0.16184385
53	0xbd833854	-0.06407228
54	0xbe0231aa	-0.12714258
55	0x3dd6ddff	0.10491561
56	0x3de1f830	0.11033666
57	0xbd2cb873	-0.042168092
58	0x3e24c43e	0.16090485
59	0xbe21c11a	-0.15796319
60	0x3cb2e383	0.021837002
61	0xbce7179a	-0.028209496
62	0xbd2ac20b	-0.04168896
63	0xbc04ab31	-0.008097456
64	0x3d97f1c7	0.07419162
65	0xbd367a3d	-0.04455017
66	0x3c08ef60	0.008357853
67	0xbe3599ea	-0.17734495
68	0xbd33024c	-0.043703362
69	0xbd387482	-0.045032986
70	0xbd8dbad4	-0.069204
71	0xbd5f258f	-0.054479178
72	0xbe2d75b4	-0.16939431
73	0xbb939aaa	-0.0045045214
74	0xbe273eca	-0.16332546
75	0x3c0c7f2b	0.008575241
76	0x3db2914d	0.0871912
77	0x3dba2871	0.09089745
78	0x3cbd2b97	0.023092074
79	0x3e974690	0.29546022
80	0xbd35c62c	-0.044378445
81	0x3d5922ae	0.05301159
82	0xbde61854	-0.11235109
83	0x3badc808	0.0053033866
84	0xbdff7379	-0.124731965
85	0xbd1057f3	-0.035240125
86	0xbd04c205	-0.032411594
87	0xbd1376dd	-0.03600203
88	0x3d898838	0.06715435
89	0xbd930185	-0.07178024
90	0x3e22b385	0.15888794
91	0xbd9dc48d	-0.07703505
92	0xbce32993	-0.027729785
93	0xbd5b8331	-0.05359191
94	0x3de5c105	0.11218456
95	0x3da12942	0.078691974
96	0xbdcd14ad	-0.10013709
97	0xbc95c78a	-0.018283624
98	0xbdc7b33c	-0.09750983
99	0x3dc731b8	0.0972628
100	0x3e90e6b8	0.28301024
101	0xbe3eca21	-0.18631794
102	0xbd0c1541	-0.034199957
103	0xbd90e2d0	-0.07074511
104	0xbdd0cb22	-0.101949945
105	0xbd234f62	-0.039870627
106	0x3d17b725	0.037039895
107	0xbe1acec8	-0.15117943
108	0x3d1c210c	0.038117453
109	0xbe0e58ce	-0.13901064
110	0xbdc91e90	-0.098202825
111	0xbd603731	-0.054740135
112	0x3c3b1314	0.011418123
113	0xbe0f9f38	-0.14025581
114	0x3e15accc	0.14616698
115	0x3e79a6f6	0.24380097
116	0x3d0f2e3a	0.034956194
117	0xbc4945bd	-0.012284693
118	0x3da8ae6d	0.08236394
119	0xbcad2a63	-0.021138376
120	0x3db1853e	0.08667992
121	0x3d6babb8	0.05753681
122	0x3e026c49	0.1273662
123	0xbd217aec	-0.039423868
124	0x3e719301	0.23591234
125	0x3d81d4d4	0.06339422
126	0xbdf10109	-0.117677756
127	0xbd851892	-0.06498827

fc.weight f4 [10, 128]
0	0x3d505e73	0.050871324
1	0xbe89e857	-0.26935074
2	0x3d0553a9	0.032550488
3	0xbea8048a	-0.32815963
4	0xbeafc9ef	-0.3433375
5	0xbee4913e	-0.4464206
6	0xbe0a3b90	-0.13499284
7	0x3ec2929a	0.38002473
8	0x3e65ed2e	0.22453758
9	0xbe9b22ca	-0.3029998
10	0xbeb5ba50	-0.35493708
11	0x3ebd0b97	0.36922905
12	0xbca07f30	-0.019591898
13	0x3e9f5c35	0.31125036
14	0xbea80fef	-0.32824656
15	0xbe9e9ed6	-0.30980557
16	0xbec782f8	-0.3896711
17	0x3e591041	0.21197607
18	0x3e958f6e	0.2921099
19	0xbd9504a6	-0.07276277
20	0xbe80a84f	-0.2512841
21	0xbc8607e2	-0.01636118
22	0xbc99854d	-0.01874032
23	0x3e036a67	0.12833558
24	0x3eb0c176	0.345226
25	0x3dbeb493	0.093117855
26	0x3dd9c6c9	0.106336184
27	0x3915fd1c	0.00014304038
28	0xbde971ca	-0.11398657
29	0x3e2c28ec	0.16812485
30	0x3d89b73f	0.067244045
31	0xbca6fd12	-0.020384345
32	0x3e8a745d	0.27041903
33	0xbed10408	-0.40823388
34	0x3e6e736e	0.2328622
35	0xbce7e3c7	-0.028306855
36	0x3da74814	0.08168045
37	0xbe1e57ca	-0.15463176
38	0x3e8ad9ab	0.27119192
39	0xbe137d50	-0.14403272
40	0xbed91490	-0.423985
41	0x3b4be826	0.0031113713
42	0x3e25c6eb	0.16189162
43	0x3e819223	0.25306806
44	0xbc8c77f4	-0.017147042
45	0xbd2f93fe	-0.042865746
46	0x3d4eb981	0.05046988
47	0xbdf35c67	-0.11882859
48	0x3e59b4c6	0.21260366
49	0x3e4d49d1	0.2004769
50	0x3d181893	0.03713281
51	0x3d825dbf	0.06365537
52	0xbec8eb0d	-0.3924183
53	0x3ea1100e	0.3145756
54	0x3e8108da	0.25202066
55	0x3e6de530	0.2323196
56	0xbe8832e3	-0.26601323
57	0x3e834618	0.25639415
58	0xbe3c229f	-0.18372582
59	0xbe4bee5a	-0.19915143
60	0x3e1029cd	0.14078446
61	0x3e86fb10	0.2636342
62	0x3dd3f74e	0.10349904
63	0x3e17975b	0.14803831
64	0x3c84e587	0.016222728
65	0x3e2ff0f2	0.17181757
66	0x3e805334	0.2506348
67	0x3e58fbf6	0.21189865
68	0x3ec08b95	0.37606493
69	0xbe8b7f75	-0.2724568
70	0x3eb1fb75	0.3476216
71	0x3df0aedc	0.11752102
72	0x3e204b81	0.15653802
73	0xbe3c2b1d	-0.18375821
74	0x3d8dea89	0.069295
75	0xbe6d4cc7	-0.2317382
76	0xbe182e57	-0.14861427
77	0x3e021c88	0.12706196
78	0xbe7c5981	-0.24643518
79	0xbdae1892	-0.0850078
80	0x3e7cba41	0.24680425
81	0xbe11a70e	-0.14223883
82	0xbe0f70ca	-0.1400787
83	0x3c849c79	0.016187893
84	0xbe1cee1f	-0.15325211
85	0x3e4a25b5	0.19740947
86	0x3e317f5e	0.17333743
87	0x3e068f8e	0.131407
88	0x3e652a85	0.22379501
89	0x3dfd123c	0.123569936
90	0xbe7b54bf	-0.24544047
91	0xbe61c552	-0.22047928
92	0x3e9237f8	0.28558326
93	0x3e308923	0.17239814
94	0xbe99b09e	-0.3001756
95	0xbe3c3cc9	-0.18382563
96	0xbe585138	-0.21124732
97	0xbe4ca553	-0.19984941
98	0xbd99d52c	-0.075113624
99	0xbe86df82	-0.26342398
100	0xbdcbe5df	-0.09955954
101	0xbe19c87e	-0.15017888
102	0x3df6bb80	0.120474815
103	0xbd590bcf	-0.052989777
104	0x3ed517ab	0.4161962
105	0x3e99f138	0.30066848
106	0x3e235eb5	0.15954097
107	0x3e604fc9	0.21905436
108	0x3e8801e7	0.2656395
109	0x3ebcb86e	0.3685946
110	0xbdc06267	-0.09393769
111	0x3bbd39cf	0.0057747136
112	0x3c90c2fd	0.017671103
113	0x3e8c81c8	0.27442765
114	0xbd3eedfd	-0.046613682
115	0x3d8a8382	0.067633644
116	0x3dccfa0a	0.10008629
117	0x3dbcdcfb	0.09221836
118	0xbc6110d0	-0.013736919
119	0x3ec7d275	0.39027753
120	0x3d724677	0.05914923
121	0x3ebb1bac	0.3654455
122	0xbcf9efcb	-0.03050985
123	0x3d8ddd43	0.06926968
124	0xbeb546d2	-0.35405594
125	0x3d02a0f7	0.03189179
126	0xbe07c79b	-0.13259737
127	0x3dfa1bc7	0.12212329
128	0xbd8a2e76	-0.06747143
129	0x3d981cbb	0.07427355
130	0xbe911992	-0.2833982
131	0xbebd0852	-0.3692041
132	0x3e3dbfd6	0.18530211
133	0x3ea0c7eb	0.31402525
134	0xbe08c756	-0.1335729
135	0xbde03d72	-0.1094922
136	0xbdebecf1	-0.11519802
137	0xbdf517c6	-0.11967425
138	0x3e8444b3	0.25833663
139	0xbdf85807	-0.12126165
140	0x3e0b9127	0.1362959
141	0xbe4b52b0	-0.19855762
142	0x3e8bc7c2	0.2730084
143	0x3e232f91	0.15936114
144	0x3de92317	0.11383646
145	0xbe2cd082	-0.16876414
146	0xbec55045	-0.38537803
147	0x3eb6204a	0.3557151
148	0x3e6c932e	0.2310302
149	0x3e052a35	0.13004382
150	0xbe5809ae	-0.21097443
151	0xbdd7748a	-0.10520275
152	0xbd45990b	-0.048241656
153	0xbe6cbb90	-0.23118424
154	0x3dc8cbbd	0.09804485
155	0x3e467e08	0.19384015
156	0xbe663f98	-0.22485197
157	0x3e8fc77c	0.28081882
158	0x3e4ec1ee	0.20191166
159	0x3eaec9b9	0.34138277
160	0xbe0daa8f	-0.13834594
161	0x3e1df812	0.15426663
162	0x3e942afa	0.2893904
163	0xbdc35a25	-0.09538678
164	0x3e58a8a7	0.21158086
165	0x3e46b8e0	0.19406462
166	0xbc143d4d	-0.009047818
167	0x3e966375	0.29372755
168	0xbed9c301	-0.4253159
169	0x3eeba9d7	0.46028015
170	0xbe81ae87	-0.25328466
171	0x3e8d13b3	0.27554092
172	0x3dac670c	0.08418092
173	0xbe76f6df	-0.24117611
174	0xbdea5584	-0.11442092
175	0x3e85c00c	0.26123083
176	0xbe428ad0	-0.18998265
177	0xbe5775ea	-0.21041074
178	0xbeb8bcee	-0.36081642
179	0xbda351cf	-0.07974588
180	0xbe0af6fa	-0.13570777
181	0xbea1a790	-0.31573153
182	0xbe495d72	-0.19664553
183	0x3ebd26f9	0.36943796
184	0xbdaa1b8d	-0.08306036
185	0x3e2ba31b	0.16761439
186	0xbe929a04	-0.2863313
187	0x3dca7386	0.098853156
188	0x3e80284b	0.2503074
189	0xbe9af571	-0.30265382
190	0xbe83812d	-0.2568449
191	0x3e9160cf	0.28394172
192	0xbdc2d087	-0.0951243
193	0xbe28233a	-0.16419688
194	0x3e136f41	0.14397909
195	0xbe827981	-0.25483325
196	0x3e8355cd	0.25651398
197	0xbcfb297d	-0.030659432
198	0xbe939e3e	-0.28831667
199	0xbe3045de	-0.17214152
200	0xbe71be59	-0.23607768
201	0xbdc82f6c	-0.0977467
202	0x3e62e911	0.2215922
203	0xbe06a2ae	-0.13147995
204	0x3ee43433	0.44571075
205	0x3e823fcd	0.254393
206	0xbe1f2465	-0.15541227
207	0x3df1d197	0.11807554
208	0x3e13645c	0.14393753
209	0x3daf8443	0.08570149
210	0x3ddefd10	0.108881116
211	0xbbf76468	-0.007549811
212	0x3ed76990	0.42072725
213	0x3df506fc	0.11964223
214	0x3e47da7d	0.1951694
215	0x3bdec4c4	0.0067983586
216	0x3cb05a07	0.021527303
217	0x3dfcf399	0.1235115
218	0xbe457501	-0.19282915
219	0x3e4bcd0a	0.19902435
220	0xbe200d96	-0.15630183
221	0x3df9172b	0.12162622
222	0xbe80bd2c	-0.25144327
223	0xbeb687da	-0.35650522
224	0xbf1f39f9	-0.62197834
225	0x3da1a83a	0.07893415
226	0xbeddac50	-0.43295527
227	0xbe73ef9b	-0.23821871
228	0x3ec4c0f9	0.38428476
229	0xbdb05cd7	-0.08611458
230	0xbe87f39b	-0.26553044
231	0x3e500e30	0.20317912
232	0xbe489029	-0.19586243
233	0xbe04202e	-0.129029
234	0xbe7581aa	-0.23975244
235	0xbdf4d314	-0.119543225
236	0xbe7d6ddd	-0.24748941
237	0x3e129b69	0.14317097
238	0x3e9cae1a	0.3060158
239	0x3e32623a	0.17420283
240	0x3d23e2a9	0.04001108
241	0xbe878165	-0.26465908
242	0x3e09bf9c	0.13452
243	0xbe03875a	-0.12844601
244	0x3eb7c2f9	0.3589094
245	0x3e362a54	0.17789584
246	0xbc0c2784	-0.008554343
247	0x3e364e15	0.17803223
248	0x3e8733b8	0.26406646
249	0xbe8f8062	-0.28027636
250	0x3ec47067	0.38367006
251	0xbe80f061	-0.25183395
252	0x3e634c48	0.22197068
253	0xbe37b677	-0.17940699
254	0xbe9a4761	-0.30132583
255	0xbec835ad	-0.3910345

fc.bias f4 [10]
0	0xbde6f1c4	-0.11276582
1	0x3e144581	0.14479639
2	0x3d8b6c01	0.068077095
3	0xbd808727	-0.06275778
4	0xbd69508c	-0.05696158
5	0x3e5519a8	0.20810568
6	0xbbdc8634	-0.0067298654
7	0x3e0894de	0.13338038
8	0xbe3f5fd0	-0.18688893
9	0xbd9943a1	-0.07483602
